verification/models/best_hybrid_model_1.pt (torch, 926017 bytes, 34 tensors)

q_weights f4 [8, 5, 3]
-0.014444404 -0.019348314 0.014009482 -0.019370815 -0.03175464 -0.021067686 -0.015030652 0.02691612
0.018209903 0.02903837 -0.00017158147 -0.017912421 0.03131431 0.0072610336 -0.01660108 -0.002924597
0.012789813 -0.014194332 0.00579555 0.015034694 -0.009137627 -0.011750376 -0.00795409 -0.017612474
-0.027087767 0.0031796996 -0.012605456 0.010440839 0.00884281 -0.006837952 0.024591617 -0.009723703
-0.025281532 0.020435102 -0.0048901285 -0.010322887 -0.006666321 -0.02341779 0.033531733 0.028407961
0.02456998 -0.0069600814 0.010658159 0.019621873 -0.03465403 -0.038806964 0.022531051 0.002066436
0.03789123 -0.009444981 0.013209482 -0.014616558 0.014827701 0.016763534 -0.0027191197 -0.003311964
0.001094096 0.008855627 -0.008627522 -0.01698912 -0.01319078 0.0029080377 -0.008171083 0.0014767966
-0.015332856 0.015073102 -0.0017888043 -0.018133163 -0.0046923966 -0.0005218637 -0.0069278935 -0.006333664
-0.009210882 0.020004896 -0.028664947 -0.0018839145 0.016464025 -0.029026797 -0.050840452 -0.015686048
0.019991338 0.004698421 -0.024187524 -0.027267955 0.020899678 0.054167792 -0.02226799 0.0096344715
0.024342928 -0.05435782 0.024281519 0.024340283 -0.01827135 0.012513294 -0.019698633 0.041259076
0.030791422 0.011966378 0.013267451 -0.048682887 -0.010637663 0.03410386 0.0034653118 0.017218875
-0.015178451 0.0064891833 0.0029703178 -0.014644863 -0.024899457 -0.036055367 9.871009e-05 0.016279371
0.0005350861 -0.012100782 0.0066623557 -0.014041279 0.00468145 -0.00012581007 0.0028947452 0.00030686083
00000000: 39a8 6cbc 5b80 9ebc 0788 653c 8baf 9ebc
00000010: 2711 02bd 2496 acbc 2043 76bc 327f dc3c
00000020: ef2c 953c e0e1 ed3c 8dea 33b9 12bd 92bc
00000030: 6f43 003d f7ed ed3b fdfe 87bc 98aa 3fbb
00000040: 5d8c 513c 588f 68bc 99e8 bd3b 1454 763c
00000050: fcb5 15bc a684 40bc df51 02bc 0948 90bc
00000060: 2ae7 ddbc 8262 503b 1d87 4ebc 0e10 2b3c
00000070: 6fe1 103c e610 e0bb 5c74 c93c 2b50 1fbc
00000080: 371b cfbc 8467 a73c 5f3d a0bb 5421 29bc
00000090: 2771 dabb aad6 bfbc 9258 093d d0b7 e83c
000000a0: fc46 c93c 6511 e4bb 8f9f 2e3c 0dbe a03c
000000b0: 62f1 0dbd 0df4 1ebd 0a93 b83c 0b6d 073b
000000c0: d633 1b3d 1fbf 1abc 956c 583c 4a7a 6fbc
000000d0: e3ef 723c ae53 893c 4233 32bb 890d 59bb
000000e0: c567 8f3a 3117 113c 735a 0dbc c42c 8bbc
000000f0: 241e 58bc c794 3e3b 02e0 05bc 1291 c13a
00000100: a936 7bbc 2cf5 763c 5076 eaba 008c 94bc
00000110: adc2 99bb aecd 08ba 6203 e3bb a08a cfbb
00000120: 3de9 16bc 4fe1 a33c c0d2 eabc aeed f6ba
00000130: 90df 863c 9bc9 edbc 143e 50bd 0780 80bc
00000140: e0c4 a33c 36f5 993b ea24 c6bc 0c61 dfbc
00000150: cd35 ab3c 0cdf 5d3d 5c6b b6bc e7d9 1d3c
00000160: d26a c73c 4ea6 5ebd 09ea c63c 4665 c73c
00000170: ccad 95bc 8f04 4d3c 075f a1bc 47ff 283d
00000180: 4b3e fc3c a10e 443c b95f 593c b567 47bd
00000190: 9849 2ebc 7db0 0b3d 491a 633b 990e 8d3c
000001a0: 0aaf 78bc 37a3 d43b aaa9 423b 02f1 6fbc
000001b0: f2f9 cbbc cbae 13bd 9302 cf38 515c 853c
000001c0: 0545 0c3a 5c42 46bc e44f da3b 650d 66bc
000001d0: d966 993b e2eb 03b9 c4b5 3d3b 2ae2 a039

pre_net1.0.weight f4 [512, 5]
-0.12690312 -0.03527725 0.1221342 -0.057838418 0.20357433 -0.07708352 0.41337016 0.06436967
-0.26222235 0.20477188 0.36729887 0.20706983 0.32939893 -0.31242153 -0.3782055 -0.15517485
0.041181613 0.3820107 0.15002705 0.37614793 -0.18155508 -0.4145771 -0.38107663 0.42108792
-0.36357412 0.20043606 -0.42617077 0.1491974 0.28528625 -0.23780091 -0.14617045 0.089352325
0.08664023 -0.11257285 0.11819753 0.44254154 0.36230147 -0.37130326 0.3795164 0.0996449
0.2291577 -0.35485068 0.38606817 0.4056593 -0.027712492 -0.070986494 0.34695324 0.14984338
0.147731 -0.3565386 0.32979852 0.04245534 0.1075217 -0.36034662 -0.18577206 0.32507762
0.3427099 -0.13002267 0.21922322 0.13184163 0.2545342 0.07361387 0.33079475 -0.38512835
-0.023667336 -0.2834924 0.04102365 -0.2995496 -0.27403644 -0.08681974 0.1465857 0.35260725
0.1316472 -0.036368124 0.021019168 -0.17174071 0.2676443 -0.30036432 0.109333135 -0.3881634
-0.339905 0.3962116 -0.35062012 0.21472763 -0.081294104 -0.41829348 -0.1832213 -0.28834724
-0.36272982 -0.31638613 0.0842856 -0.033848066 -0.02704236 -0.20120135 0.21810164 -0.32275718
-0.10435192 0.25334898 -0.058719344 -0.085541576 -0.40348163 0.12502131 -0.10255712 -0.26847312
-0.32073104 0.33804584 0.37153536 0.30765522 0.21067885 -0.048073523 -0.11528633 -0.07556354
-0.36595404 0.31944138 -0.29010552 -0.23348871 0.042502258 -0.20211571 0.16857776 -0.26050922
-0.10669371 0.18300933 -0.27398798 -0.32325026 -0.17608137 0.27784634 -0.048680905 -0.050954502
0.43717042 0.1572697 0.40338337 0.43196663 -0.18680401 0.3467906 0.06684922 -0.22357763
0.38896796 0.11473774 -0.15412115 -0.43244633 -0.10745175 -0.3245932 -0.045171216 0.14890791
-0.3139476 0.1846355 -0.40834364 -0.116870224 0.06557612 -0.358495 -0.12160348 -0.28962883
0.24369903 0.42432177 0.39507172 -0.33287868 0.3065122 0.35423502 0.4190681 0.26525527
-0.0719557 0.20475401 -0.4411114 0.24183796 0.041135658 -0.08180414 0.4150868 0.18067634
0.3793786 -0.09946508 -0.13754883 0.20220959 0.29422885 0.18927263 -0.16811144 -0.30307597
-0.44102162 -0.25719368 0.30037796 -0.24781674 -0.33050245 0.3746032 0.028554501 -0.090068035
0.4376653 0.12142152 0.10564373 0.34630966 -0.25687313 0.14737462 0.38256276 -0.23878968
0.1984858 -0.2796257 -0.04206547 -0.16250595 -0.2670015 0.28763065 0.32292 -0.033985876
-0.3259988 0.24575058 -0.06380579 0.0993656 -0.16474447 -0.24230252 0.09888665 0.11233428
0.029333977 -0.43012133 0.035695378 0.094323345 0.1850775 -0.16048883 0.09696171 0.43918374
0.33405772 -0.37973982 0.41191614 -0.44543883 -0.37564248 0.2620294 0.32183605 0.19038296
0.33853924 0.12065836 0.3567076 -0.14276147 0.078583404 0.28301513 -0.07507174 -0.42669636
-0.17260553 0.30687892 -0.32468638 0.13485125 0.05694667 0.053524464 -0.23395887 0.40821868
-0.055934485 -0.2175039 0.41730917 0.20579638 -0.05471348 -0.025401415 -0.028828792 -0.20336758
0.42803082 0.19849226 0.17717235 0.17711525 -0.17796664 0.2505988 0.2180825 -0.34093785
00000000: e4f2 01be e17e 10bd 7f21 fa3d fae7 6cbd
00000010: ca75 503e f7dd 9dbd 41a5 d33e 3fd4 833d
00000020: 0242 86be b8af 513e 990e bc3e 1d0a 543e
00000030: faa6 a83e b7f5 9fbe 27a4 c1be 28e6 1ebe
00000040: 0dae 283d e896 c33e b1a0 193e 7696 c03e
00000050: 93e9 39be 7343 d4be 7a1c c3be d698 d73e
00000060: 6326 babe 1c3f 4d3e 0e33 dabe 34c7 183e
00000070: 0a11 923e 1582 73be b5ad 15be 5afe b63d
00000080: 6f70 b13d 988c e6bd 8c11 f23d ce94 e23e
00000090: 947f b93e 761b bebe f94f c23e a012 cc3d
000000a0: 51a8 6a3e fdae b5be baaa c53e 93b2 cf3e
000000b0: 4f05 e3bc 5e61 91bd dba3 b13e 8b70 193e
000000c0: cc46 173e 3a8c b6be 5adb a83e a7e5 2d3d
000000d0: 5634 dc3d 5a7f b8be 083b 3ebe 9370 a63e
000000e0: ac77 af3e aa24 05be 0d7c 603e 7e01 073e
000000f0: 4f52 823e dec2 963d ee5d a93e 8b2f c5be
00000100: 00e2 c1bc ea25 91be 6a08 283d 915e 99be
00000110: 814e 8cbe 8cce b1bd 901a 163e f088 b43e
00000120: 86ce 063e bef6 14bd 6430 ac3c ccdc 2fbe
00000130: ac08 893e 5ac9 99be 0dea df3d 5abd c6be
00000140: 0708 aebe 3fdc ca3e 7b84 b3be 8fe1 5b3e
00000150: 867d a6bd 902a d6be 5d9e 3bbe 40a2 93be
00000160: b9b7 b9be 5dfd a1be ee9d ac3d 45a4 0abd
00000170: f087 ddbc ba07 4ebe 0956 5f3e 6e40 a5be
00000180: 76b6 d5bd f5b6 813e b283 70bd 6c30 afbd
00000190: 2595 cebe 9605 003e 7809 d2bd 4f75 89be
000001a0: dc36 a4be 5814 ad3e e239 be3e fc84 9d3e
000001b0: 32bc 573e bee8 44bd 3d1b ecbd 0fc1 9abd
000001c0: 545e bbbe d28d a33e b688 94be aa17 6fbe
000001d0: d916 2e3d 6cf7 4ebe a69f 2c3e 7761 85be
000001e0: 3b82 dabd cc66 3b3e 2748 8cbe 0f81 a5be
000001f0: ad4e 34be e041 8e3e a165 47bd abb5 50bd
00000200: cdd4 df3e 4f0b 213e 4488 ce3e bb2a dd3e
00000210: 8d49 3fbe 8a8e b13e 3ee8 883d 89f1 64be
00000220: cf26 c73e 9ffb ea3d efd1 1dbe 9b69 ddbe
00000230: aa0f dcbd 1431 a6be 7405 39bd 517b 183e
00000240: bdbd a0be 1711 3d3e 6b12 d1be a859 efbd
00000250: c64c 863d a88c b7be 3f0b f9bd 3b4a 94be
00000260: 3d8c 793e b440 d93e d746 ca3e 136f aabe
00000270: 2bef 9c3e 4b5e b53e 1890 d63e 8acf 873e
00000280: 835d 93bd 09ab 513e 5ad9 e1be 5fa4 773e
00000290: dd7d 283d ee88 a7bd 4286 d43e 3803 393e
000002a0: e93d c23e 59b4 cbbd 9ad9 0cbe 0810 4f3e
000002b0: 2aa5 963e afd0 413e 6825 2cbe c62c 9bbe
000002c0: 96cd e1be e4ae 83be 24cb 993e acc3 7dbe
000002d0: 9e37 a9be fecb bf3e 21eb e93c 9775 b8bd
000002e0: ab15 e03e d9ab f83d bd5b d83d 804f b13e
000002f0: e084 83be 5fe9 163e 44df c33e 4885 74be
00000300: dd3f 4b3e 1a2b 8fbe d84c 2cbd f667 26be
00000310: 6cb4 88be 5344 933e c555 a53e c634 0bbd
00000320: 51e9 a6be 0aa6 7b3e 9cac 82bd 3180 cb3d
00000330: c6b2 28be 271e 78be 1585 ca3d 840f e63d
00000340: cf4d f03c dd38 dcbe 5135 123d 992c c13d
00000350: f584 3d3e 2f57 24be dc93 c63d b1dc e03e
00000360: 9d09 ab3e 426d c2be ace6 d23e 8f10 e4be
00000370: 3654 c0be b828 863e b2c7 a43e c0f3 423e
00000380: 0455 ad3e bb1b f73d 61a2 b63e 1030 12be
00000390: 56f0 a03d 5ce7 903e 36bf 99bd f277 dabe
000003a0: 81bf 30be 3c1f 9d3e 4b3d a6be 7216 0a3e
000003b0: e940 693d 783c 5b3d ea92 6fbe 0a02 d13e
000003c0: 8f1b 65bd 58b9 5ebe 8ca9 d53e 49bc 523e
000003d0: 3e1b 60bd a116 d0bc 5c2a ecbc 973f 50be
000003e0: db26 db3e 8e41 4b3e ab6c 353e b35d 353e
000003f0: e33c 36be 7c4e 803e 0551 5f3e 688f aebe

pre_net1.0.bias f4 [512]
-0.30340022 0.2009501 -0.058699567 0.23486528 0.29161447 -0.28403065 -0.21490665 0.10235374
0.037495244 0.16802779 -0.40847483 0.30667037 0.14599325 0.11311354 -0.16216294 0.40582097
0.14411853 -0.25402504 -0.16236424 0.43833393 0.04395341 0.052637137 0.1690097 -0.16136384
-0.078094795 -0.08054395 -0.13511242 0.15602773 0.4417867 0.13953573 0.13082992 -0.30142346
-0.014429376 0.4168814 -0.22807035 -0.017142478 0.42651337 0.17950203 -0.16750278 -0.37929007
0.41119236 0.2652663 0.018185155 0.06073214 0.029380038 -0.3819011 -0.15666722 0.05312734
0.13466556 -0.34247243 -0.2100776 0.25377357 0.0249577 0.2800261 0.37162265 -0.13238087
0.39425087 -0.009199361 0.34193954 0.3255625 0.11892343 -0.16066082 0.0016289486 -0.17979343
-0.2989436 0.06491522 0.3489838 -0.16977158 0.27403712 -0.19196339 -0.13882081 -0.20540266
-0.17847647 0.03527741 -0.13118231 0.04351785 0.04919334 0.029523287 0.1100521 -0.31414804
-0.4438859 -0.28578922 0.3061871 -0.20794255 0.2439498 0.2855272 -0.4085726 0.43155628
0.13186322 -0.34931 -0.3215445 0.18417974 0.23626503 -0.23843984 0.26732773 -0.2938944
0.18703908 0.03796551 -0.37346378 -0.35581696 0.36517093 0.4224063 0.11448169 -0.03457684
-0.21435289 0.38842776 0.050748188 0.16466706 -0.017922966 0.05351124 0.09642752 0.2624316
0.23044646 0.35406455 0.2818999 0.2882901 -0.34111267 0.32102993 0.039848812 0.2659828
0.39224005 -0.38788834 -0.10516035 0.1321689 0.37450522 -0.15189248 0.12026711 0.11214859
-0.16152117 0.043105215 -0.1480996 0.11674313 -0.25323677 0.32831118 0.19448058 -0.0771476
-0.08009016 -0.031423166 -0.4199219 -0.39430127 0.14722097 -0.19143656 -0.062488504 0.20080237
-0.025955541 0.32947102 -0.06358577 0.054440416 -0.0495814 0.24340555 -0.38332847 -0.21583144
0.26318762 0.35486108 0.1299699 -0.31303334 -0.26059783 -0.31273463 -0.39513704 -0.05459822
-0.19213015 0.3136262 0.35854346 -0.21039794 0.27697515 0.4105927 -0.43051782 0.19513151
-0.2779623 0.3285482 -0.053583533 0.14184114 -0.08521238 -0.20075727 -0.2578603 -0.3988652
0.11483242 -0.2999039 -0.22187853 -0.044404857 -0.424475 0.0022676266 0.052876294 0.35322553
0.30742198 -0.012449368 -0.123826325 0.33886546 -0.2558622 0.19429639 0.31549415 0.1253134
0.14945704 -0.292295 -0.1181157 -0.004415088 -0.38616467 -0.22001393 -0.22205532 0.14980762
-0.23976706 0.04042554 -0.08142381 0.05356951 0.21922305 -0.2319183 0.06953678 0.020174919
0.038371537 -0.2033566 -0.13474041 0.26170874 -0.018851928 -0.07492716 -0.09525193 0.36237526
0.2272882 0.22288516 0.27403548 -0.19534466 -0.28424478 0.102754645 0.10940915 0.0042963084
-0.3288083 -0.027151916 -0.017856486 -0.16346183 0.04640187 0.35812804 -0.40861797 0.06800246
0.41513032 -0.17794521 -0.12161766 0.018329043 -0.26634416 -0.445826 -0.21533117 -0.2530179
0.21740064 0.22514191 -0.025814477 -0.103103355 -0.23196393 -0.026417596 -0.40744108 0.036700472
-0.19352053 -0.41856894 0.28059664 -0.009134054 -0.20744035 -0.28260422 -0.19802988 0.29288512
00000000: 4657 9bbe ddc5 4d3e f56e 70bd 8680 703e
00000010: 7e4e 953e 776c 91be 7d10 5cbe d69e d13d
00000020: 9d94 193d 7a0f 2c3e 9d23 d1be e603 9d3e
00000030: 417f 153e 12a8 e73d 0b0e 26be c4c7 cf3e
00000040: cf93 133e 920f 82be d042 26be 4e6d e03e
00000050: 7e08 343d 0a9a 573d e110 2d3e 903c 25be
00000060: 2af0 9fbd 3af4 a4bd e95a 0abe bcc5 1f3e
00000070: de31 e23e 74e2 0e3e 47f8 053e 2d54 9abe
00000080: 3169 6cbc 7b71 d53e 468b 69be 626e 8cbc
00000090: f65f da3e 61cf 373e d985 2bbe 4f32 c2be
000000a0: ce87 d23e fcd0 873e 09f9 943c 44c2 783d
000000b0: 68ae f03c 8a88 c3be 5f6d 20be 0e9c 593d
000000c0: c5e5 093e 8c58 afbe 951e 57be 9cee 813e
000000d0: 1774 cc3c 955f 8f3e 5345 be3e da8e 07be
000000e0: 40db c93e ebb8 16bc b312 af3e 21b0 a63e
000000f0: 218e f33d 4584 24be 7282 d53a c51b 38be
00000100: 230f 99be 45f2 843d 01ae b23e 9ad8 2dbe
00000110: 984e 8c3e 0d92 44be 0b27 0ebe 1355 52be
00000120: 89c2 36be 0c7f 103d a854 06be c63f 323d
00000130: f57e 493d d2da f13c ff62 e13d 03d8 a0be
00000140: 0345 e3be f752 92be 8ec4 9c3e e4ee 54be
00000150: facd 793e 9f30 923e 6e30 d1be f2f4 dc3e
00000160: 2707 073e c3d8 b2be 7ba1 a4be 9d99 3c3e
00000170: 76ef 713e 9329 74be 2edf 883e 5479 96be
00000180: 2c87 3f3e b981 1b3d a536 bfbe a42d b6be
00000190: aff7 ba3e a345 d83e 6075 ea3d 72a0 0dbd
000001a0: 537f 5bbe 01e0 c63e 55dd 4f3d 7b9e 283e
000001b0: 2fd3 92bc 9a2e 5b3d cb7b c53d 6f5d 863e
000001c0: 28fa 6b3e f347 b53e 2f55 903e c39a 933e
000001d0: 52a6 aebe 095e a43e 8238 233d e62e 883e
000001e0: b0d3 c83e 4d99 c6be 4f5e d7bd 4957 073e
000001f0: 26bf bf3e b489 1bbe 9a4e f63d 29ae e53d
00000200: ce65 25be 188f 303d 6ca7 17be 0617 ef3d
00000210: 40a8 81be 6718 a83e eb25 473e 90ff 9dbd
00000220: 4f06 a4bd 94b5 00bd 0100 d7be dbe1 c9be
00000230: 18c1 163e f207 44be f2f3 7fbd 239f 4d3e
00000240: b7a0 d4bc 6db0 a83e 4239 82bd eafc 5e3d
00000250: de15 4bbd 4e3f 793e a143 c4be eb02 5dbe
00000260: 87c0 863e 5ab0 b53e d416 053e e845 a0be
00000270: 146d 85be c11e a0be 674f cabe 62a2 5fbd
00000280: c4bd 44be 9d93 a03e 0293 b73e 8f72 57be
00000290: b0cf 8d3e 3539 d23e d56c dcbe 8ed0 473e
000002a0: 1351 8ebe 7837 a83e 687a 5bbd ce3e 113e
000002b0: d483 aebd 5093 4dbe 4406 84be 0f38 ccbe
000002c0: 432d eb3d 018d 99be 2034 63be dee1 35bd
000002d0: ca54 d9be 769c 143b d094 583d fad9 b43e
000002e0: 6a66 9d3e 6ff8 4bbc a898 fdbd c67f ad3e
000002f0: 5f00 83be a2f5 463e 7388 a13e 2852 003e
00000300: 440b 193e b1a7 95be a5e6 f1bd 71ac 90bb
00000310: 60b7 c5be 554b 61be 7862 63be 2b67 193e
00000320: 7f85 75be 4095 253d 87c1 a6bd b46b 5b3d
00000330: 027c 603e fe7b 6dbe 4d69 8e3d df45 a53c
00000340: 792b 1d3d b63c 50be 64f9 09be b0fe 853e
00000350: 5c6f 9abc 6973 99bd 7213 c3bd 4089 b93e
00000360: 3dbe 683e 023c 643e 614e 8c3e 6e08 48be
00000370: 8888 91be 0771 d23d e811 e03d 0cc8 8c3b
00000380: 9059 a8be b26d debc c447 92bc 8a62 27be
00000390: e30f 3e3d 8f5c b73e 6036 d1be e044 8b3d
000003a0: f68b d43e 4537 36be ae12 f9bd ca26 963c
000003b0: 435e 88be 4e43 e4be c67f 5cbe 908b 81be
000003c0: 469e 5e3e 9a8b 663e e278 d3bc da27 d3bd
000003d0: f487 6dbe b769 d8bc 1e9c d0be 3c53 163d
000003e0: 3f2a 46be ab4e d6be 5daa 8f3e 00a7 15bc
000003f0: 3e6b 54be 80b1 90be 58c8 4abe 0af5 953e

pre_net1.1.weight f4 [512]
1.0 1.0 1.0 1.0 1.0 1.0 1.0 1.0
1.0 1.0 1.0 1.0 1.0 1.0 1.0 1.0
1.0 1.0 1.0 1.0 1.0 1.0 1.0 1.0
1.0 1.0 1.0 1.0 1.0 1.0 1.0 1.0
1.0 1.0 1.0 1.0 1.0 1.0 1.0 1.0
1.0 1.0 1.0 1.0 1.0 1.0 1.0 1.0
1.0 1.0 1.0 1.0 1.0 1.0 1.0 1.0
1.0 1.0 1.0 1.0 1.0 1.0 1.0 1.0
1.0 1.0 1.0 1.0 1.0 1.0 1.0 1.0
1.0 1.0 1.0 1.0 1.0 1.0 1.0 1.0
1.0 1.0 1.0 1.0 1.0 1.0 1.0 1.0
1.0 1.0 1.0 1.0 1.0 1.0 1.0 1.0
1.0 1.0 1.0 1.0 1.0 1.0 1.0 1.0
1.0 1.0 1.0 1.0 1.0 1.0 1.0 1.0
1.0 1.0 1.0 1.0 1.0 1.0 1.0 1.0
1.0 1.0 1.0 1.0 1.0 1.0 1.0 1.0
1.0 1.0 1.0 1.0 1.0 1.0 1.0 1.0
1.0 1.0 1.0 1.0 1.0 1.0 1.0 1.0
1.0 1.0 1.0 1.0 1.0 1.0 1.0 1.0
1.0 1.0 1.0 1.0 1.0 1.0 1.0 1.0
1.0 1.0 1.0 1.0 1.0 1.0 1.0 1.0
1.0 1.0 1.0 1.0 1.0 1.0 1.0 1.0
1.0 1.0 1.0 1.0 1.0 1.0 1.0 1.0
1.0 1.0 1.0 1.0 1.0 1.0 1.0 1.0
1.0 1.0 1.0 1.0 1.0 1.0 1.0 1.0
1.0 1.0 1.0 1.0 1.0 1.0 1.0 1.0
1.0 1.0 1.0 1.0 1.0 1.0 1.0 1.0
1.0 1.0 1.0 1.0 1.0 1.0 1.0 1.0
1.0 1.0 1.0 1.0 1.0 1.0 1.0 1.0
1.0 1.0 1.0 1.0 1.0 1.0 1.0 1.0
1.0 1.0 1.0 1.0 1.0 1.0 1.0 1.0
1.0 1.0 1.0 1.0 1.0 1.0 1.0 1.0
00000000: 0000 803f 0000 803f 0000 803f 0000 803f
00000010: 0000 803f 0000 803f 0000 803f 0000 803f
00000020: 0000 803f 0000 803f 0000 803f 0000 803f
00000030: 0000 803f 0000 803f 0000 803f 0000 803f
00000040: 0000 803f 0000 803f 0000 803f 0000 803f
00000050: 0000 803f 0000 803f 0000 803f 0000 803f
00000060: 0000 803f 0000 803f 0000 803f 0000 803f
00000070: 0000 803f 0000 803f 0000 803f 0000 803f
00000080: 0000 803f 0000 803f 0000 803f 0000 803f
00000090: 0000 803f 0000 803f 0000 803f 0000 803f
000000a0: 0000 803f 0000 803f 0000 803f 0000 803f
000000b0: 0000 803f 0000 803f 0000 803f 0000 803f
000000c0: 0000 803f 0000 803f 0000 803f 0000 803f
000000d0: 0000 803f 0000 803f 0000 803f 0000 803f
000000e0: 0000 803f 0000 803f 0000 803f 0000 803f
000000f0: 0000 803f 0000 803f 0000 803f 0000 803f
00000100: 0000 803f 0000 803f 0000 803f 0000 803f
00000110: 0000 803f 0000 803f 0000 803f 0000 803f
00000120: 0000 803f 0000 803f 0000 803f 0000 803f
00000130: 0000 803f 0000 803f 0000 803f 0000 803f
00000140: 0000 803f 0000 803f 0000 803f 0000 803f
00000150: 0000 803f 0000 803f 0000 803f 0000 803f
00000160: 0000 803f 0000 803f 0000 803f 0000 803f
00000170: 0000 803f 0000 803f 0000 803f 0000 803f
00000180: 0000 803f 0000 803f 0000 803f 0000 803f
00000190: 0000 803f 0000 803f 0000 803f 0000 803f
000001a0: 0000 803f 0000 803f 0000 803f 0000 803f
000001b0: 0000 803f 0000 803f 0000 803f 0000 803f
000001c0: 0000 803f 0000 803f 0000 803f 0000 803f
000001d0: 0000 803f 0000 803f 0000 803f 0000 803f
000001e0: 0000 803f 0000 803f 0000 803f 0000 803f
000001f0: 0000 803f 0000 803f 0000 803f 0000 803f
00000200: 0000 803f 0000 803f 0000 803f 0000 803f
00000210: 0000 803f 0000 803f 0000 803f 0000 803f
00000220: 0000 803f 0000 803f 0000 803f 0000 803f
00000230: 0000 803f 0000 803f 0000 803f 0000 803f
00000240: 0000 803f 0000 803f 0000 803f 0000 803f
00000250: 0000 803f 0000 803f 0000 803f 0000 803f
00000260: 0000 803f 0000 803f 0000 803f 0000 803f
00000270: 0000 803f 0000 803f 0000 803f 0000 803f
00000280: 0000 803f 0000 803f 0000 803f 0000 803f
00000290: 0000 803f 0000 803f 0000 803f 0000 803f
000002a0: 0000 803f 0000 803f 0000 803f 0000 803f
000002b0: 0000 803f 0000 803f 0000 803f 0000 803f
000002c0: 0000 803f 0000 803f 0000 803f 0000 803f
000002d0: 0000 803f 0000 803f 0000 803f 0000 803f
000002e0: 0000 803f 0000 803f 0000 803f 0000 803f
000002f0: 0000 803f 0000 803f 0000 803f 0000 803f
00000300: 0000 803f 0000 803f 0000 803f 0000 803f
00000310: 0000 803f 0000 803f 0000 803f 0000 803f
00000320: 0000 803f 0000 803f 0000 803f 0000 803f
00000330: 0000 803f 0000 803f 0000 803f 0000 803f
00000340: 0000 803f 0000 803f 0000 803f 0000 803f
00000350: 0000 803f 0000 803f 0000 803f 0000 803f
00000360: 0000 803f 0000 803f 0000 803f 0000 803f
00000370: 0000 803f 0000 803f 0000 803f 0000 803f
00000380: 0000 803f 0000 803f 0000 803f 0000 803f
00000390: 0000 803f 0000 803f 0000 803f 0000 803f
000003a0: 0000 803f 0000 803f 0000 803f 0000 803f
000003b0: 0000 803f 0000 803f 0000 803f 0000 803f
000003c0: 0000 803f 0000 803f 0000 803f 0000 803f
000003d0: 0000 803f 0000 803f 0000 803f 0000 803f
000003e0: 0000 803f 0000 803f 0000 803f 0000 803f
000003f0: 0000 803f 0000 803f 0000 803f 0000 803f

pre_net1.1.bias f4 [512]
0.0 0.0 0.0 0.0 0.0 0.0 0.0 0.0
0.0 0.0 0.0 0.0 0.0 0.0 0.0 0.0
0.0 0.0 0.0 0.0 0.0 0.0 0.0 0.0
0.0 0.0 0.0 0.0 0.0 0.0 0.0 0.0
0.0 0.0 0.0 0.0 0.0 0.0 0.0 0.0
0.0 0.0 0.0 0.0 0.0 0.0 0.0 0.0
0.0 0.0 0.0 0.0 0.0 0.0 0.0 0.0
0.0 0.0 0.0 0.0 0.0 0.0 0.0 0.0
0.0 0.0 0.0 0.0 0.0 0.0 0.0 0.0
0.0 0.0 0.0 0.0 0.0 0.0 0.0 0.0
0.0 0.0 0.0 0.0 0.0 0.0 0.0 0.0
0.0 0.0 0.0 0.0 0.0 0.0 0.0 0.0
0.0 0.0 0.0 0.0 0.0 0.0 0.0 0.0
0.0 0.0 0.0 0.0 0.0 0.0 0.0 0.0
0.0 0.0 0.0 0.0 0.0 0.0 0.0 0.0
0.0 0.0 0.0 0.0 0.0 0.0 0.0 0.0
0.0 0.0 0.0 0.0 0.0 0.0 0.0 0.0
0.0 0.0 0.0 0.0 0.0 0.0 0.0 0.0
0.0 0.0 0.0 0.0 0.0 0.0 0.0 0.0
0.0 0.0 0.0 0.0 0.0 0.0 0.0 0.0
0.0 0.0 0.0 0.0 0.0 0.0 0.0 0.0
0.0 0.0 0.0 0.0 0.0 0.0 0.0 0.0
0.0 0.0 0.0 0.0 0.0 0.0 0.0 0.0
0.0 0.0 0.0 0.0 0.0 0.0 0.0 0.0
0.0 0.0 0.0 0.0 0.0 0.0 0.0 0.0
0.0 0.0 0.0 0.0 0.0 0.0 0.0 0.0
0.0 0.0 0.0 0.0 0.0 0.0 0.0 0.0
0.0 0.0 0.0 0.0 0.0 0.0 0.0 0.0
0.0 0.0 0.0 0.0 0.0 0.0 0.0 0.0
0.0 0.0 0.0 0.0 0.0 0.0 0.0 0.0
0.0 0.0 0.0 0.0 0.0 0.0 0.0 0.0
0.0 0.0 0.0 0.0 0.0 0.0 0.0 0.0
00000000: 0000 0000 0000 0000 0000 0000 0000 0000
00000010: 0000 0000 0000 0000 0000 0000 0000 0000
00000020: 0000 0000 0000 0000 0000 0000 0000 0000
00000030: 0000 0000 0000 0000 0000 0000 0000 0000
00000040: 0000 0000 0000 0000 0000 0000 0000 0000
00000050: 0000 0000 0000 0000 0000 0000 0000 0000
00000060: 0000 0000 0000 0000 0000 0000 0000 0000
00000070: 0000 0000 0000 0000 0000 0000 0000 0000
00000080: 0000 0000 0000 0000 0000 0000 0000 0000
00000090: 0000 0000 0000 0000 0000 0000 0000 0000
000000a0: 0000 0000 0000 0000 0000 0000 0000 0000
000000b0: 0000 0000 0000 0000 0000 0000 0000 0000
000000c0: 0000 0000 0000 0000 0000 0000 0000 0000
000000d0: 0000 0000 0000 0000 0000 0000 0000 0000
000000e0: 0000 0000 0000 0000 0000 0000 0000 0000
000000f0: 0000 0000 0000 0000 0000 0000 0000 0000
00000100: 0000 0000 0000 0000 0000 0000 0000 0000
00000110: 0000 0000 0000 0000 0000 0000 0000 0000
00000120: 0000 0000 0000 0000 0000 0000 0000 0000
00000130: 0000 0000 0000 0000 0000 0000 0000 0000
00000140: 0000 0000 0000 0000 0000 0000 0000 0000
00000150: 0000 0000 0000 0000 0000 0000 0000 0000
00000160: 0000 0000 0000 0000 0000 0000 0000 0000
00000170: 0000 0000 0000 0000 0000 0000 0000 0000
00000180: 0000 0000 0000 0000 0000 0000 0000 0000
00000190: 0000 0000 0000 0000 0000 0000 0000 0000
000001a0: 0000 0000 0000 0000 0000 0000 0000 0000
000001b0: 0000 0000 0000 0000 0000 0000 0000 0000
000001c0: 0000 0000 0000 0000 0000 0000 0000 0000
000001d0: 0000 0000 0000 0000 0000 0000 0000 0000
000001e0: 0000 0000 0000 0000 0000 0000 0000 0000
000001f0: 0000 0000 0000 0000 0000 0000 0000 0000
00000200: 0000 0000 0000 0000 0000 0000 0000 0000
00000210: 0000 0000 0000 0000 0000 0000 0000 0000
00000220: 0000 0000 0000 0000 0000 0000 0000 0000
00000230: 0000 0000 0000 0000 0000 0000 0000 0000
00000240: 0000 0000 0000 0000 0000 0000 0000 0000
00000250: 0000 0000 0000 0000 0000 0000 0000 0000
00000260: 0000 0000 0000 0000 0000 0000 0000 0000
00000270: 0000 0000 0000 0000 0000 0000 0000 0000
00000280: 0000 0000 0000 0000 0000 0000 0000 0000
00000290: 0000 0000 0000 0000 0000 0000 0000 0000
000002a0: 0000 0000 0000 0000 0000 0000 0000 0000
000002b0: 0000 0000 0000 0000 0000 0000 0000 0000
000002c0: 0000 0000 0000 0000 0000 0000 0000 0000
000002d0: 0000 0000 0000 0000 0000 0000 0000 0000
000002e0: 0000 0000 0000 0000 0000 0000 0000 0000
000002f0: 0000 0000 0000 0000 0000 0000 0000 0000
00000300: 0000 0000 0000 0000 0000 0000 0000 0000
00000310: 0000 0000 0000 0000 0000 0000 0000 0000
00000320: 0000 0000 0000 0000 0000 0000 0000 0000
00000330: 0000 0000 0000 0000 0000 0000 0000 0000
00000340: 0000 0000 0000 0000 0000 0000 0000 0000
00000350: 0000 0000 0000 0000 0000 0000 0000 0000
00000360: 0000 0000 0000 0000 0000 0000 0000 0000
00000370: 0000 0000 0000 0000 0000 0000 0000 0000
00000380: 0000 0000 0000 0000 0000 0000 0000 0000
00000390: 0000 0000 0000 0000 0000 0000 0000 0000
000003a0: 0000 0000 0000 0000 0000 0000 0000 0000
000003b0: 0000 0000 0000 0000 0000 0000 0000 0000
000003c0: 0000 0000 0000 0000 0000 0000 0000 0000
000003d0: 0000 0000 0000 0000 0000 0000 0000 0000
000003e0: 0000 0000 0000 0000 0000 0000 0000 0000
000003f0: 0000 0000 0000 0000 0000 0000 0000 0000

pre_net2.0.weight f4 [256, 512]
0.042390402 -0.027119564 -0.0055288076 0.013175204 0.01792536 -0.005701831 0.017491927 -0.014639154
-0.021933546 0.027019538 0.000382588 0.02379445 0.014463913 0.027971646 0.017332027 0.038127303
0.017491722 -0.03890426 -0.0012990871 0.01878563 0.040223256 0.010536491 0.011566723 -0.009845436
0.008479503 0.014090555 0.044103898 -0.03066776 -0.0057928944 0.041104726 0.006412353 0.018908119
-0.036499277 -0.040270675 0.035157874 0.021685112 0.02721717 -0.029648174 -0.030146208 -0.011547409
-0.011095679 0.015115914 -0.03233707 -0.040149566 0.013023835 -0.0031480324 0.009005132 -0.0006910977
-0.028197732 0.015361662 0.043077275 -0.0017583665 0.023445064 0.041007046 0.007651339 -0.020037148
0.021680724 0.029779103 0.030037494 0.04153839 0.011800243 0.012162179 -0.022686379 -0.0014559365
-0.018792743 0.027364964 -0.0021345217 -0.012195654 0.015913501 -0.009960433 -0.023163475 0.02733811
-0.0060571027 -0.038853507 0.030434687 0.01556757 0.0011876139 -0.019721705 -0.0016546273 0.02226537
0.023073366 0.029912693 -0.014942506 0.022663113 0.035025705 -0.01366307 -0.030949863 0.00038927884
-0.039105188 0.009362822 0.013837505 -0.0015065497 0.033583414 -0.026115531 0.037264768 0.042078037
0.012405625 0.035221767 0.042474866 0.025184158 0.0070780045 0.0019488492 -0.042371113 0.03463359
0.03157255 0.027490418 0.017518975 -0.0027508456 -0.027198678 0.017050354 0.03673242 -0.015387583
-0.022887334 0.03156227 -0.0089706825 0.024961691 0.022915378 -0.04289753 0.03667689 -0.0321703
0.015902031 -0.0153709715 -0.040990867 -0.03597564 -0.026116373 -0.020874932 0.008484934 0.038759094
0.03258906 0.03831687 -0.002477397 0.013970932 0.02170676 0.016969537 -0.011846794 -0.018576903
0.021047102 0.006478761 -0.03884945 0.029326446 0.01745211 -0.017166495 -0.030104887 -0.0404824
0.014153059 -0.03322522 0.038904224 0.029449403 0.014930426 0.04131954 -0.0071263523 0.014636768
-0.042179726 -0.029634308 -0.008501683 -0.039939802 0.0064053885 0.009531146 -0.021367656 -0.04044935
-0.01725102 0.018843994 -0.014373598 0.024535477 -0.013234896 0.029274588 0.041139722 0.029598689
0.019437352 0.04165384 0.0040867534 -0.042651273 0.03505917 -0.011190926 -0.03265856 0.03544151
0.02646791 -0.00045853137 -0.02009881 0.042304467 0.00045361073 0.03605258 -0.010371059 0.01930195
-0.043125723 -0.013401238 -0.016327815 0.024098609 0.037179988 0.04237285 0.0055795894 0.034822516
0.002459042 -0.029409122 0.004781607 -0.038328506 -0.024609655 -0.021623345 0.0053887325 -0.040527366
-0.03518283 7.96154e-05 -0.032180667 0.005590221 0.02666396 -0.015223963 0.04246643 -0.03435567
-0.016104195 -0.029777918 0.038981687 -0.019841166 0.0035397504 -0.0206008 -0.009104989 0.012076431
-0.04386595 -0.017462056 -0.0024837875 0.004201124 -0.008979665 0.006879077 0.0030225506 0.015677884
0.027882257 0.036881804 -0.035311468 -0.042240605 0.038269043 -0.011794611 -0.038164493 -0.03709557
0.029661013 0.03705685 -0.0035914646 -0.007948627 -0.0040028705 -0.041030414 -0.0039227335 0.040719762
-0.043957625 -0.011542852 0.0079720495 0.0012494591 0.017466687 0.0023090625 -0.0011749751 5.201448e-05
-0.025727827 -0.029356606 0.042892303 -0.032501146 -0.013781656 0.01614945 0.042136528 0.03391136
00000000: 8fa1 2d3d d929 debc 002b b5bb d0dc 573c
00000010: 34d8 923c 6dd6 babb 3b4b 8f3c 10d9 6fbc
00000020: fbad b3bc 1458 dd3c 1896 c839 94ec c23c
00000030: 0cfa 6c3c cb24 e53c e5fb 8d3c 602b 1c3d
00000040: cd4a 8f3c 135a 1fbd 2146 aaba 52e4 993c
00000050: 24c1 243d 3fa1 2c3c 5a82 3d3c c04e 21bc
00000060: 9ded 0a3c 12dc 663c 4aa6 343d f43a fbbc
00000070: 52d2 bdbb 6e5d 283d b71e d23b 33e5 9a3c
00000080: 4480 15bd ddf2 24bd b401 103d faa4 b13c
00000090: 8bf6 de3c bae0 f2bc 2ef5 f6bc 5831 3dbc
000000a0: a7ca 35bc bda8 773c e073 04bd df73 24bd
000000b0: ec61 553c 384f 4ebb 438a 133c c82a 35ba
000000c0: eefe e6bc 7baf 7b3c cc71 303d fd78 e6ba
000000d0: dd0f c03c 01f7 273d 15b8 fa3b f224 a4bc
000000e0: c69b b13c 4ef3 f33c 3111 f63c 2924 2a3d
000000f0: ce55 413c e043 473c c9d8 b9bc 1fd5 beba
00000100: 3df3 99bc 7d2c e03c 55e3 0bbb 48d0 47bc
00000110: 085d 823c 1531 23bc 54c1 bdbc 2cf4 df3c
00000120: a97a c6bb db24 1fbd 2a52 f93c 1f0f 7f3c
00000130: b6a9 9b3a 6a8f a1bc 14e0 d8ba dd65 b63c
00000140: 5b04 bd3c 770b f53c 6ad1 74bc fea7 b93c
00000150: 1d77 0f3d 12db 5fbc 918a fdbc 1f18 cc39
00000160: c32c 20bd 8666 193c b4b6 623c 6b77 c5ba
00000170: c38e 093d 3df0 d5bc f1a2 183d 055a 2c3d
00000180: f640 4b3c b344 103d 20fa 2d3d 024f ce3c
00000190: 9bee e73b 8770 ff3a 558d 2dbd f4db 0d3d
000001a0: 3852 013d 9633 e13c f483 8f3c 8847 34bb
000001b0: c3cf debc 2fad 8b3c bc74 163d 331c 7cbc
000001c0: 387e bbbc 7047 013d c5f9 12bc 767c cc3c
000001d0: 08b9 bb3c 52b5 2fbd 823a 163d 01c5 03bd
000001e0: fa44 823c 87d6 7bbc 0ae6 27bd 315b 13bd
000001f0: 01f2 d5bc e801 abbc 6504 0b3c dbc1 1e3d
00000200: 1b7c 053d 26f2 1c3d d35b 22bb 56e6 643c
00000210: 60d2 b13c b303 8b3c 0e19 42bc 972e 98bc
00000220: f96a ac3c c94b d43b 9a20 1fbd 043e f03c
00000230: baf7 8e3c c0a0 8cbc 869e f6bc e0d0 25bd
00000240: 3be2 673c 2b17 08bd 095a 1f3d e03f f13c
00000250: bf9e 743c ae3e 293d 2d84 e9bb 0ecf 6f3c
00000260: a6c4 2cbd a6c3 f2bc a54a 0bbc eb97 23bd
00000270: 4be4 d13b 8628 1c3c 390b afbc 38ae 25bd
00000280: 0352 8dbc b85e 9a3c 3d7f 6bbc a0fe c83c
00000290: 2dd7 58bc 43d1 ef3c 2082 283d f378 f23c
000002a0: 153b 9f3c 389d 2a3d 2cea 853b 1ab3 2ebd
000002b0: 349a 0f3d 255a 37bc fbc4 05bd 1e2b 113d
000002c0: 3bd3 d83c 0a67 f0b9 42a6 a4bc 7347 2d3d
000002d0: 9ad2 ed39 dfab 133d 60eb 29bc 1f1f 9e3c
000002e0: 99a4 30bd de90 5bbc e9c1 85bc 726a c53c
000002f0: 0b4a 183d 278f 2d3d fdd4 b63b 0ea2 0e3d
00000300: e127 213b 66eb f0bc 07af 9c3b 5afe 1cbd
00000310: 309a c9bc 7123 b1bc f793 b03b 0600 26bd
00000320: df1b 10bd 31f7 a638 e0cf 03bd 2c2e b73b
00000330: 616e da3c ee6d 79bc 48f1 2d3d 88b8 0cbd
00000340: f2ec 83bc d2f0 f3bc 43ab 1f3d f189 a2bc
00000350: 28fb 673b 02c3 a8bc 172d 15bc 39dc 453c
00000360: c8ac 33bd 960c 8fbc 0ac7 22bb 95a9 893b
00000370: 721f 13bc e169 e13b fc15 463b e86e 803c
00000380: 5569 e43c 6011 173d c2a2 10bd 7c04 2dbd
00000390: 00c0 1c3d 2f3e 41bc 5f52 1cbd 86f1 17bd
000003a0: a7fb f23c ecc8 173d c75e 6bbb f53a 02bc
000003b0: 832a 83bb 820f 28bd 468a 80bb c4c9 263d
000003c0: e90c 34bd 3b1e 3dbc 339d 023c e4c4 a33a
000003d0: 4c16 8f3c a453 173b 9f01 9aba 1f2a 5a38
000003e0: 2ac3 d2bc 447d f0bc d7af 2f3d ec1f 05bd
000003f0: 74cc 61bc da4b 843c 5a97 2c3d a3e6 0a3d

pre_net2.0.bias f4 [256]
0.024810659 0.00803743 0.02799372 -0.03142507 -0.0311364 -0.005421307 0.020595236 -0.02571866
-0.026497476 0.022340348 0.017964378 -0.043344684 0.006225084 0.027750049 0.0047520464 0.027734527
0.020232078 0.028790543 0.024619322 -0.023978164 -0.030153155 -0.0103044035 -0.0022750027 -0.01715932
-0.0014475598 0.012509416 -0.028179836 -0.040974595 -0.037795413 0.020638611 -0.019766597 0.0036556069
-0.008912309 -0.0070093316 -0.0046427385 -0.005080202 0.009121179 -0.010613319 -0.005039604 -0.017969899
0.005040315 0.00058671576 0.011912717 1.3434308e-05 0.008151833 0.041569814 -0.028000379 0.027882226
-0.040101934 -0.01648005 0.0405081 0.008215442 0.014940499 0.035479244 -0.020007957 -0.036462996
0.0103045935 0.02328438 -0.010993557 0.0021411546 0.0060584988 0.0144113405 0.030685555 0.0020095038
0.016816502 -0.015353312 0.01764483 -0.0018671791 -0.028128121 0.0020583046 -0.0105585335 -0.0025172941
0.00999935 0.0014078312 -0.035767574 0.018335069 0.04201232 0.039710972 -0.010114111 -0.015688706
-0.02204338 -0.030479036 0.026289485 0.02924406 0.008626822 -0.020760398 -0.02616924 0.023736399
-0.006148398 -0.028600393 -0.029043788 -0.010691238 -0.0073113083 -0.024557114 -0.03885179 0.032006457
-0.034765895 0.037354592 -0.023235483 0.0053353324 -0.040400416 -0.021969445 -0.040422905 -0.038045928
0.021108005 -0.025521902 0.034894865 -0.038907405 -0.031588197 -0.019600628 0.043509603 0.024668133
0.0012222481 -0.007662692 -0.033606432 0.0076216725 -0.03370775 0.011086291 -0.016296817 -0.03560163
-0.016290268 0.014941584 -0.0050654244 0.026457679 -0.009993444 0.025380272 -0.02760118 0.015242091
-0.005594309 -0.019554362 -0.023331894 -0.0070160856 0.012310494 -0.011308658 -0.029047566 0.032974124
-0.011873046 -0.025832683 -0.028348465 -0.015666457 -0.00032339804 0.040201046 -0.02517758 0.016145851
-0.01612208 -0.024663635 -0.04184705 0.041607436 0.019956997 0.012272293 -0.0045532715 -0.023577757
0.021310916 -0.0026036056 -0.04080799 -0.0071030506 -0.03924503 0.0003401198 -0.029628785 0.04171679
-0.00065302855 -0.043148946 0.024072172 0.0017641459 -0.009759962 0.02394756 0.0341559 -0.038707107
-0.0348864 0.016858092 -0.023590881 -0.034995124 -0.016693734 -0.041899577 -0.03476569 0.042809427
0.0023363263 -0.016695024 0.017473403 -0.010768867 -0.03782289 0.023332153 -0.011613732 0.02996366
0.0022192844 -0.020932348 -0.0069355536 -0.035225835 0.00842378 0.015029587 -0.03588341 0.007511643
-0.025873607 -0.038529083 -0.008822405 -0.033225697 -0.021555694 -0.03038371 0.025529558 -0.0010407584
-0.036370274 -0.0032646896 -0.023383787 -0.002390564 -0.007557704 -0.010833326 -0.04079582 0.010010961
-0.0151940705 -0.023605654 0.039527554 0.032764785 0.032110486 -0.015682016 -0.02314774 0.009378242
-0.0347881 5.001777e-05 -0.011339362 -0.037187174 -0.011029577 -0.0069749136 -0.005346059 -0.03957337
0.03962056 0.027871305 -0.029096825 0.03534422 -0.035189334 0.009122975 -0.032834925 -0.029615562
0.03663642 0.026458817 0.035971478 -0.0009921947 -0.033040885 -0.029067611 -0.01583988 -0.023037536
-0.04244237 -0.007334795 0.040488977 -0.02917803 0.022389201 -0.010741061 -0.004573997 -0.029850863
0.01904311 -0.012471379 -0.0298452 -0.037315644 0.031449202 0.011447305 0.010530653 -0.0063182497
00000000: b93f cb3c 6daf 033c 1653 e53c 93b7 00bd
00000010: c311 ffbc 38a5 b1bb 57b7 a83c f0af d2bc
00000020: 3c11 d9bc 1b03 b73c 082a 933c 328a 31bd
00000030: cafb cb3b 1254 e33c 0eb7 9b3b 8533 e33c
00000040: bebd a53c 25da eb3c 76ae c93c db6d c4bc
00000050: c003 f7bc cdd3 28bc 3618 15bb b491 8cbc
00000060: 0cbc bdba 4bf4 4c3c 66d9 e6bc fad4 27bd
00000070: 5dcf 1abd 4e12 a93c 8fed a1bc e892 6f3b
00000080: ef04 12bc 89ae e5bb 1d22 98bb d377 a6bb
00000090: ff70 153c 7de3 2dbc 4323 a5bb 9c35 93bc
000000a0: 3a29 a53b d4cd 193a 8e2d 433c ea63 6137
000000b0: 448f 053c 1c45 2a3d 0d61 e5bc 4469 e43c
000000c0: ed41 24bd 2b01 87bc d2eb 253d 109a 063c
000000d0: ffc8 743c af52 113d bae7 a3bc 395a 15bd
000000e0: 99d4 283c e2be be3c 521e 34bc 9d52 0c3b
000000f0: 5f86 c63b 8b1d 6c3c 4660 fb3c e1b1 033b
00000100: c3c2 893c 758c 7bbc e48b 903c 22bc f4ba
00000110: f26c e6bc 9fe4 063b b3fd 2cbc 30f9 24bb
00000120: 50d4 233c fa86 b83a 0581 12bd 6d33 963c
00000130: 1c15 2c3d f9a7 223d a8b5 25bc 9a85 80bc
00000140: 5294 b4bc 2caf f9bc 0c5d d73c 3d91 ef3c
00000150: 8457 0d3c b611 aabc e060 d6bc d672 c23c
00000160: 8078 c9bb 5f4b eabc 3ded edbc 4d2a 2fbc
00000170: b393 efbb 002c c9bc 0e23 1fbd 3419 033d
00000180: af66 0ebd 2101 193d 5758 bebc 03d4 ae3b
00000190: e87a 25bd 44f9 b3bc 7d92 25bd 0cd6 1bbd
000001a0: b2ea ac3c 4f13 d1bc ebed 0e3d 5f5d 1fbd
000001b0: a062 01bd 7f91 a0bc 2037 323d d314 ca3c
000001c0: d733 a03a 5217 fbbb e6a6 09bd 39bf f93b
000001d0: 2311 0abd 46a3 353c e780 85bc 04d3 11bd
000001e0: 2b73 85bc 8ccd 743c dcfb a5bb c6bd d83c
000001f0: 8bbb 23bc 4aea cf3c df1b e2bc f7b9 793c
00000200: 7750 b7bb 7830 a0bc 8722 bfbc 31e7 e5bb
00000210: f4b1 493c f347 39bc 29f5 edbc e00f 073d
00000220: 2a87 42bc 109f d3bc 0a3b e8bc f156 80bc
00000230: c08d a9b9 daa9 243d 3641 cebc 4e44 843c
00000240: 7412 84bc 640b cabc d067 2bbd 8f6c 2a3d
00000250: db7c a33c ba11 493c 9c33 95bb 2426 c1bc
00000260: 3b94 ae3c 41a1 2abb 4726 27bd b5c0 e8bb
00000270: 66bf 20bd 1b52 b239 11b8 f2bc 3adf 2a3d
00000280: 0130 2bba f3bc 30bd 0133 c53c ea3a e73a
00000290: 3fe8 1fbc ac2d c43c 0fe7 0b3d 588b 1ebd
000002a0: 0be5 0ebd fb19 8a3c aa41 c1bc 0c57 0fbd
000002b0: 4cc1 88bc e49e 2bbd 7866 0ebd f058 2f3d
000002c0: 0d1d 193b 01c4 88bc 6224 8f3c e76f 30bc
000002d0: 2dec 1abd 1223 bf3c 8647 3ebc 5976 f53c
000002e0: 6a71 113b 517a abbc a443 e3bb f748 10bd
000002f0: e503 0a3c a83e 763c 7cfa 12bd 3b24 f63b
00000300: e3f4 d3bc acd0 1dbd d98b 10bc ab17 08bd
00000310: 9195 b0bc 42e7 f8bc 5d23 d13c 0f6a 88ba
00000320: fff8 14bd 67f4 55bb 5b8f bfbc 02ab 1cbb
00000330: 9ea6 f7bb 437e 31bc 8519 27bd 0405 243c
00000340: 8df0 78bc a560 c1bc a5e7 213d 5e34 063d
00000350: 4986 033d 9277 80bc 54a0 bdbc 33a7 193c
00000360: f77d 0ebd 2cca 5138 bbc8 39bc 9451 18bd
00000370: 66b5 34bc d18d e4bb fe2d afbb b017 22bd
00000380: 2b49 223d 5d52 e43c 775c eebc 1ac5 103d
00000390: b122 10bd 8878 153c ea7d 06bd 569c f2bc
000003a0: 1210 163d 29c0 d83c d456 133d 880c 82ba
000003b0: e155 07bd 331f eebc a3c2 81bc 37b9 bcbc
000003c0: 0dd8 2dbd b858 f0bb c5d7 253d c406 efbc
000003d0: 8f69 b73c 46fb 2fbc 78e1 95bb cc89 f4bc
000003e0: 4c00 9c3c c154 4cbc ec7d f4bc 4ad8 18bd
000003f0: e1d0 003d 7a8d 3b3c c388 2c3c 5209 cfbb

pre_net2.1.weight f4 [256]
1.0 1.0 1.0 1.0 1.0 1.0 1.0 1.0
1.0 1.0 1.0 1.0 1.0 1.0 1.0 1.0
1.0 1.0 1.0 1.0 1.0 1.0 1.0 1.0
1.0 1.0 1.0 1.0 1.0 1.0 1.0 1.0
1.0 1.0 1.0 1.0 1.0 1.0 1.0 1.0
1.0 1.0 1.0 1.0 1.0 1.0 1.0 1.0
1.0 1.0 1.0 1.0 1.0 1.0 1.0 1.0
1.0 1.0 1.0 1.0 1.0 1.0 1.0 1.0
1.0 1.0 1.0 1.0 1.0 1.0 1.0 1.0
1.0 1.0 1.0 1.0 1.0 1.0 1.0 1.0
1.0 1.0 1.0 1.0 1.0 1.0 1.0 1.0
1.0 1.0 1.0 1.0 1.0 1.0 1.0 1.0
1.0 1.0 1.0 1.0 1.0 1.0 1.0 1.0
1.0 1.0 1.0 1.0 1.0 1.0 1.0 1.0
1.0 1.0 1.0 1.0 1.0 1.0 1.0 1.0
1.0 1.0 1.0 1.0 1.0 1.0 1.0 1.0
1.0 1.0 1.0 1.0 1.0 1.0 1.0 1.0
1.0 1.0 1.0 1.0 1.0 1.0 1.0 1.0
1.0 1.0 1.0 1.0 1.0 1.0 1.0 1.0
1.0 1.0 1.0 1.0 1.0 1.0 1.0 1.0
1.0 1.0 1.0 1.0 1.0 1.0 1.0 1.0
1.0 1.0 1.0 1.0 1.0 1.0 1.0 1.0
1.0 1.0 1.0 1.0 1.0 1.0 1.0 1.0
1.0 1.0 1.0 1.0 1.0 1.0 1.0 1.0
1.0 1.0 1.0 1.0 1.0 1.0 1.0 1.0
1.0 1.0 1.0 1.0 1.0 1.0 1.0 1.0
1.0 1.0 1.0 1.0 1.0 1.0 1.0 1.0
1.0 1.0 1.0 1.0 1.0 1.0 1.0 1.0
1.0 1.0 1.0 1.0 1.0 1.0 1.0 1.0
1.0 1.0 1.0 1.0 1.0 1.0 1.0 1.0
1.0 1.0 1.0 1.0 1.0 1.0 1.0 1.0
1.0 1.0 1.0 1.0 1.0 1.0 1.0 1.0
00000000: 0000 803f 0000 803f 0000 803f 0000 803f
00000010: 0000 803f 0000 803f 0000 803f 0000 803f
00000020: 0000 803f 0000 803f 0000 803f 0000 803f
00000030: 0000 803f 0000 803f 0000 803f 0000 803f
00000040: 0000 803f 0000 803f 0000 803f 0000 803f
00000050: 0000 803f 0000 803f 0000 803f 0000 803f
00000060: 0000 803f 0000 803f 0000 803f 0000 803f
00000070: 0000 803f 0000 803f 0000 803f 0000 803f
00000080: 0000 803f 0000 803f 0000 803f 0000 803f
00000090: 0000 803f 0000 803f 0000 803f 0000 803f
000000a0: 0000 803f 0000 803f 0000 803f 0000 803f
000000b0: 0000 803f 0000 803f 0000 803f 0000 803f
000000c0: 0000 803f 0000 803f 0000 803f 0000 803f
000000d0: 0000 803f 0000 803f 0000 803f 0000 803f
000000e0: 0000 803f 0000 803f 0000 803f 0000 803f
000000f0: 0000 803f 0000 803f 0000 803f 0000 803f
00000100: 0000 803f 0000 803f 0000 803f 0000 803f
00000110: 0000 803f 0000 803f 0000 803f 0000 803f
00000120: 0000 803f 0000 803f 0000 803f 0000 803f
00000130: 0000 803f 0000 803f 0000 803f 0000 803f
00000140: 0000 803f 0000 803f 0000 803f 0000 803f
00000150: 0000 803f 0000 803f 0000 803f 0000 803f
00000160: 0000 803f 0000 803f 0000 803f 0000 803f
00000170: 0000 803f 0000 803f 0000 803f 0000 803f
00000180: 0000 803f 0000 803f 0000 803f 0000 803f
00000190: 0000 803f 0000 803f 0000 803f 0000 803f
000001a0: 0000 803f 0000 803f 0000 803f 0000 803f
000001b0: 0000 803f 0000 803f 0000 803f 0000 803f
000001c0: 0000 803f 0000 803f 0000 803f 0000 803f
000001d0: 0000 803f 0000 803f 0000 803f 0000 803f
000001e0: 0000 803f 0000 803f 0000 803f 0000 803f
000001f0: 0000 803f 0000 803f 0000 803f 0000 803f
00000200: 0000 803f 0000 803f 0000 803f 0000 803f
00000210: 0000 803f 0000 803f 0000 803f 0000 803f
00000220: 0000 803f 0000 803f 0000 803f 0000 803f
00000230: 0000 803f 0000 803f 0000 803f 0000 803f
00000240: 0000 803f 0000 803f 0000 803f 0000 803f
00000250: 0000 803f 0000 803f 0000 803f 0000 803f
00000260: 0000 803f 0000 803f 0000 803f 0000 803f
00000270: 0000 803f 0000 803f 0000 803f 0000 803f
00000280: 0000 803f 0000 803f 0000 803f 0000 803f
00000290: 0000 803f 0000 803f 0000 803f 0000 803f
000002a0: 0000 803f 0000 803f 0000 803f 0000 803f
000002b0: 0000 803f 0000 803f 0000 803f 0000 803f
000002c0: 0000 803f 0000 803f 0000 803f 0000 803f
000002d0: 0000 803f 0000 803f 0000 803f 0000 803f
000002e0: 0000 803f 0000 803f 0000 803f 0000 803f
000002f0: 0000 803f 0000 803f 0000 803f 0000 803f
00000300: 0000 803f 0000 803f 0000 803f 0000 803f
00000310: 0000 803f 0000 803f 0000 803f 0000 803f
00000320: 0000 803f 0000 803f 0000 803f 0000 803f
00000330: 0000 803f 0000 803f 0000 803f 0000 803f
00000340: 0000 803f 0000 803f 0000 803f 0000 803f
00000350: 0000 803f 0000 803f 0000 803f 0000 803f
00000360: 0000 803f 0000 803f 0000 803f 0000 803f
00000370: 0000 803f 0000 803f 0000 803f 0000 803f
00000380: 0000 803f 0000 803f 0000 803f 0000 803f
00000390: 0000 803f 0000 803f 0000 803f 0000 803f
000003a0: 0000 803f 0000 803f 0000 803f 0000 803f
000003b0: 0000 803f 0000 803f 0000 803f 0000 803f
000003c0: 0000 803f 0000 803f 0000 803f 0000 803f
000003d0: 0000 803f 0000 803f 0000 803f 0000 803f
000003e0: 0000 803f 0000 803f 0000 803f 0000 803f
000003f0: 0000 803f 0000 803f 0000 803f 0000 803f

pre_net2.1.bias f4 [256]
0.0 0.0 0.0 0.0 0.0 0.0 0.0 0.0
0.0 0.0 0.0 0.0 0.0 0.0 0.0 0.0
0.0 0.0 0.0 0.0 0.0 0.0 0.0 0.0
0.0 0.0 0.0 0.0 0.0 0.0 0.0 0.0
0.0 0.0 0.0 0.0 0.0 0.0 0.0 0.0
0.0 0.0 0.0 0.0 0.0 0.0 0.0 0.0
0.0 0.0 0.0 0.0 0.0 0.0 0.0 0.0
0.0 0.0 0.0 0.0 0.0 0.0 0.0 0.0
0.0 0.0 0.0 0.0 0.0 0.0 0.0 0.0
0.0 0.0 0.0 0.0 0.0 0.0 0.0 0.0
0.0 0.0 0.0 0.0 0.0 0.0 0.0 0.0
0.0 0.0 0.0 0.0 0.0 0.0 0.0 0.0
0.0 0.0 0.0 0.0 0.0 0.0 0.0 0.0
0.0 0.0 0.0 0.0 0.0 0.0 0.0 0.0
0.0 0.0 0.0 0.0 0.0 0.0 0.0 0.0
0.0 0.0 0.0 0.0 0.0 0.0 0.0 0.0
0.0 0.0 0.0 0.0 0.0 0.0 0.0 0.0
0.0 0.0 0.0 0.0 0.0 0.0 0.0 0.0
0.0 0.0 0.0 0.0 0.0 0.0 0.0 0.0
0.0 0.0 0.0 0.0 0.0 0.0 0.0 0.0
0.0 0.0 0.0 0.0 0.0 0.0 0.0 0.0
0.0 0.0 0.0 0.0 0.0 0.0 0.0 0.0
0.0 0.0 0.0 0.0 0.0 0.0 0.0 0.0
0.0 0.0 0.0 0.0 0.0 0.0 0.0 0.0
0.0 0.0 0.0 0.0 0.0 0.0 0.0 0.0
0.0 0.0 0.0 0.0 0.0 0.0 0.0 0.0
0.0 0.0 0.0 0.0 0.0 0.0 0.0 0.0
0.0 0.0 0.0 0.0 0.0 0.0 0.0 0.0
0.0 0.0 0.0 0.0 0.0 0.0 0.0 0.0
0.0 0.0 0.0 0.0 0.0 0.0 0.0 0.0
0.0 0.0 0.0 0.0 0.0 0.0 0.0 0.0
0.0 0.0 0.0 0.0 0.0 0.0 0.0 0.0
00000000: 0000 0000 0000 0000 0000 0000 0000 0000
00000010: 0000 0000 0000 0000 0000 0000 0000 0000
00000020: 0000 0000 0000 0000 0000 0000 0000 0000
00000030: 0000 0000 0000 0000 0000 0000 0000 0000
00000040: 0000 0000 0000 0000 0000 0000 0000 0000
00000050: 0000 0000 0000 0000 0000 0000 0000 0000
00000060: 0000 0000 0000 0000 0000 0000 0000 0000
00000070: 0000 0000 0000 0000 0000 0000 0000 0000
00000080: 0000 0000 0000 0000 0000 0000 0000 0000
00000090: 0000 0000 0000 0000 0000 0000 0000 0000
000000a0: 0000 0000 0000 0000 0000 0000 0000 0000
000000b0: 0000 0000 0000 0000 0000 0000 0000 0000
000000c0: 0000 0000 0000 0000 0000 0000 0000 0000
000000d0: 0000 0000 0000 0000 0000 0000 0000 0000
000000e0: 0000 0000 0000 0000 0000 0000 0000 0000
000000f0: 0000 0000 0000 0000 0000 0000 0000 0000
00000100: 0000 0000 0000 0000 0000 0000 0000 0000
00000110: 0000 0000 0000 0000 0000 0000 0000 0000
00000120: 0000 0000 0000 0000 0000 0000 0000 0000
00000130: 0000 0000 0000 0000 0000 0000 0000 0000
00000140: 0000 0000 0000 0000 0000 0000 0000 0000
00000150: 0000 0000 0000 0000 0000 0000 0000 0000
00000160: 0000 0000 0000 0000 0000 0000 0000 0000
00000170: 0000 0000 0000 0000 0000 0000 0000 0000
00000180: 0000 0000 0000 0000 0000 0000 0000 0000
00000190: 0000 0000 0000 0000 0000 0000 0000 0000
000001a0: 0000 0000 0000 0000 0000 0000 0000 0000
000001b0: 0000 0000 0000 0000 0000 0000 0000 0000
000001c0: 0000 0000 0000 0000 0000 0000 0000 0000
000001d0: 0000 0000 0000 0000 0000 0000 0000 0000
000001e0: 0000 0000 0000 0000 0000 0000 0000 0000
000001f0: 0000 0000 0000 0000 0000 0000 0000 0000
00000200: 0000 0000 0000 0000 0000 0000 0000 0000
00000210: 0000 0000 0000 0000 0000 0000 0000 0000
00000220: 0000 0000 0000 0000 0000 0000 0000 0000
00000230: 0000 0000 0000 0000 0000 0000 0000 0000
00000240: 0000 0000 0000 0000 0000 0000 0000 0000
00000250: 0000 0000 0000 0000 0000 0000 0000 0000
00000260: 0000 0000 0000 0000 0000 0000 0000 0000
00000270: 0000 0000 0000 0000 0000 0000 0000 0000
00000280: 0000 0000 0000 0000 0000 0000 0000 0000
00000290: 0000 0000 0000 0000 0000 0000 0000 0000
000002a0: 0000 0000 0000 0000 0000 0000 0000 0000
000002b0: 0000 0000 0000 0000 0000 0000 0000 0000
000002c0: 0000 0000 0000 0000 0000 0000 0000 0000
000002d0: 0000 0000 0000 0000 0000 0000 0000 0000
000002e0: 0000 0000 0000 0000 0000 0000 0000 0000
000002f0: 0000 0000 0000 0000 0000 0000 0000 0000
00000300: 0000 0000 0000 0000 0000 0000 0000 0000
00000310: 0000 0000 0000 0000 0000 0000 0000 0000
00000320: 0000 0000 0000 0000 0000 0000 0000 0000
00000330: 0000 0000 0000 0000 0000 0000 0000 0000
00000340: 0000 0000 0000 0000 0000 0000 0000 0000
00000350: 0000 0000 0000 0000 0000 0000 0000 0000
00000360: 0000 0000 0000 0000 0000 0000 0000 0000
00000370: 0000 0000 0000 0000 0000 0000 0000 0000
00000380: 0000 0000 0000 0000 0000 0000 0000 0000
00000390: 0000 0000 0000 0000 0000 0000 0000 0000
000003a0: 0000 0000 0000 0000 0000 0000 0000 0000
000003b0: 0000 0000 0000 0000 0000 0000 0000 0000
000003c0: 0000 0000 0000 0000 0000 0000 0000 0000
000003d0: 0000 0000 0000 0000 0000 0000 0000 0000
000003e0: 0000 0000 0000 0000 0000 0000 0000 0000
000003f0: 0000 0000 0000 0000 0000 0000 0000 0000
