verification/models/best_hybrid_model_2.pt (torch, 926017 bytes, 34 tensors)

q_weights f4 [8, 5, 3]
00000000: a249 613b 3b39 e4ba f1a2 8fbc 3925 e43b
00000010: af93 06bd 7ba3 763a 853f efba b86f 483c
00000020: 84e4 24bc cfdd 2a3d e9e2 e43c cb5d a03c
00000030: a21c a0bc 21d7 b4bc 549f c13c 9591 953c
00000040: 4bef 2a3c 6081 853c 86e5 803b 47bd bcbc
00000050: 8665 bdbb 62f6 efbc b84d 8cbc 34e3 bebc
00000060: a745 983b 177f cdbb f9a7 353c 0106 4abc
00000070: 3d18 5fbb 8a43 b73b e0f7 4a3c f7c9 b2bc
00000080: f2ba a03c f917 e1bb 7dce 93bc 7547 f83c
00000090: 0902 7ebb f0a2 9dbc 07ab cebc ce35 3f3c
000000a0: a2de db3c 0044 b7bb dd44 f4bb a22b 9fba
000000b0: 1e51 5e3c 4b42 823c d033 d73b 6b0a 063d
000000c0: 66c5 c43b 8db4 a3bb da2c 95bc 3c68 6abb
000000d0: f7f7 78bc 40d9 2b3d 30e1 943c 2089 c2bb
000000e0: 3213 82ba 70a6 56b9 a965 003d 5754 bc3b
000000f0: 3437 05bd dd8e 4c3a a94c b839 59fc 203d
00000100: bf11 16bc f8aa 77bc af6e bebc e7fd c53c
00000110: 3fe5 8c3c 8697 acba 5044 2e3b 60a9 92bc
00000120: 19cb 293d 87e6 4b3b cf9a 8d3b 0987 423b
00000130: 94b5 4dbc f514 913b 372e 003c aa5a ec3b
00000140: c9bb 13bb 00f0 5f3c 65e1 a33b f5cc 37bb
00000150: 58d4 d9bc 8ef8 75bc ae69 f23a e5de c53b
00000160: c707 093c c02b 793c 05fe ebbb 376c eb3c
00000170: ea38 d2bc 4f83 273c 3b52 733c 0fb5 003d
00000180: e26b 783c b768 8d3b c46e dcbc 795c bebc
00000190: d47b a33c 1597 5dbc 6632 09bb 6a8a b03b
000001a0: 62bf a33c a091 693c 6c4d 933c 8794 14bb
000001b0: 7f22 8f3c e37a 813c 970f c0bb 503f 6aba
000001c0: d4a2 53bc b06c 863c eb1b 40bc bec5 06b9
000001d0: d3e4 fdbc 75bb bb3c 2992 7d3c 2d22 29bb
0.0034376164 -0.0017412076 -0.017533751 0.006962445 -0.032855686 0.0009408516 -0.0018253183 0.012233667
-0.010064248 0.04171544 0.02794023 0.019575974 -0.019544903 -0.022075238 0.023635544 0.018257895
0.010433028 0.016297042 0.0039336113 -0.023039473 -0.005779925 -0.02929229 -0.017126903 -0.023301698
0.004646975 -0.006271254 0.011087411 -0.012330533 -0.0034041547 0.005592768 0.0123882 -0.02182482
0.019620392 -0.006869313 -0.018042797 0.03030751 -0.0038758537 -0.019242734 -0.025228037 0.011670543
0.026839558 -0.005592823 -0.007454498 -0.0012143741 0.0135691445 0.015900752 0.006567456 0.03272478
0.006004977 -0.0049958886 -0.018209863 -0.0035767695 -0.015195838 0.041955233 0.018173784 -0.0059367567
-0.0009923934 -0.00020470633 0.03134695 0.005747359 -0.03252335 0.0007803271 0.0003515233 0.039303157
-0.009159504 -0.015116446 -0.023246137 0.024168922 0.017199157 -0.0013167716 0.002659101 -0.01790303
0.041453455 0.0031112747 0.004321433 0.0029682538 -0.012555499 0.004427547 0.0078235185 0.0072129564
-0.0022542349 0.01366806 0.0050012344 -0.0028045748 -0.026590511 -0.015012873 0.001849463 0.006038534
0.008363671 0.015208185 -0.0072019123 0.028738124 -0.025661904 0.0102241775 0.014851148 0.03142267
0.01516244 0.0043154615 -0.026908286 -0.023237454 0.019956507 -0.01352479 -0.002093458 0.005387594
0.01998872 0.014255911 0.017981254 -0.0022671537 0.017472504 0.015805667 -0.0058612335 -0.0008935826
-0.012917239 0.016409248 -0.011725406 -0.000128529 -0.030992901 0.022916535 0.015476742 -0.0025807724

pre_net1.0.weight f4 [512, 5]
00000000: b0d7 763e 8d4a bbbe 2812 ae3e 518e 683e
00000010: 0af2 7b3b 7d7c 63be 420f ae3e 6da2 d3be
00000020: 213e 153c 3fa9 97be 9399 37be 0e3a b7bd
00000030: db46 46be b1ed 10be 93c0 8dbe 417d f7bd
00000040: b819 d73e d025 15bd 9e30 963e 8612 d1b8
00000050: 15f3 70be 54dd 91be 4462 a2be 92bf f23c
00000060: 8794 843e 73d3 87be 730e 64be b60c 7f3e
00000070: c5ac a8be 2b2a 2abe c415 d5be e553 d9be
00000080: a1a2 18be 718a 473e 4514 843e c5a6 b1bd
00000090: 4235 1f3a 2a18 9cbe ecd8 173c 5982 6c3d
000000a0: ec28 12be bebd 803c 3b08 183e 5ab1 29be
000000b0: 2010 a6bb dcb6 f83d 7043 8cbe a18e 933e
000000c0: 5db9 c23e f8ec c73e 8fef bb3e 3308 2ebd
000000d0: 5d1e fabc e4e2 fbbd 30d4 dc3e b3ec 20be
000000e0: e2e0 b53e 5c07 52be a1f2 40bd 98b0 dabe
000000f0: ef44 bc3d 2ef6 e2be 71e3 d9bd 36ae 693e
00000100: fec8 c63d 847d 223e 1060 0fbe 5e35 8bbe
00000110: fd78 76be f2b5 b6be 4cd4 fbbd 3840 d7be
00000120: 207b c43e 9cea d03d fd0f b8bc 639e 0b3e
00000130: 2dec 523d 651f dd3e 7a8e ae3c ac8a 0ebe
00000140: ace6 96be c80f b23d fede d5be 2996 9e3d
00000150: d5a8 923e 6d62 9fbb f368 f0bd 1575 a63e
00000160: 83f2 45be a889 283d 14d7 d03e fa70 a1be
00000170: e146 9d3e c660 863e 77c8 0bbe f0a5 4a3e
00000180: 3864 a2bd 6962 4c3e c271 4ebe 8c49 dfbe
00000190: 9174 72be 3abd 98bd 5260 19be eccf 883d
000001a0: 37b5 c93e 2e89 c8be d889 bdbe 6482 893d
000001b0: 5cb7 29be f271 8bbe f47a 08bd b221 b8be
000001c0: 6c35 bbbd d294 5bbe 58ed 4e3d bba8 bb3e
000001d0: 3366 81be d7f4 d53e 4a58 acbe c9a4 923c
000001e0: 6c5b 3d3e 8574 86bd 6740 a3be eb0f acbe
000001f0: 879d 4d3e 67ce 7b3e 738f d1be cff3 c3be
00000200: 35d9 e23e cc08 623e 5cdd 1b3e a0c6 693d
00000210: 7c23 7d3d aa75 98be 2432 733e 0ee6 b23e
00000220: c6e6 6bbe 72b8 173d 25c3 143c 6a2e 223b
00000230: 760f d1be d5e7 bbbe 3422 14be e3d1 ab3d
00000240: 070f 403e b9e8 583e 2cf0 32be 64d4 77be
00000250: 53e5 91be 69e8 473e ac59 8c3d 0833 4b3e
00000260: 8c08 a43d 2107 8abc 9623 61be 6902 d53e
00000270: 01f7 4f3e 82dc d83e 585d b1be 33b3 51be
00000280: 2282 433c 6b31 663e 3657 33be 890c 463e
00000290: 886b 2bbe b31e 263e e3f0 0d3e 72a7 d5be
000002a0: d692 9f3d 7fbb 673d 3c12 be3d 3c5d 703c
000002b0: 4b77 b63e 71d5 833e e8c9 e43e e27c 8dbe
000002c0: 50c1 5f3e ccbe ae3e 3ff4 d4be 4290 a63e
000002d0: 4bbf df3e fa12 643e 0f62 16be a1d0 e0be
000002e0: 8f39 9d3e fcc1 33be 289d d0be 7aff d93e
000002f0: 4f0c 26be bc48 d13e 8157 df3d addc 593c
00000300: 42fa 853e a77b d13e aab8 e1be 8c93 06bc
00000310: 8a44 49bd 5e93 8f3d ffaf dbbe 3d52 53be
00000320: b93b 683e b54b 30be d4cf 743e d701 3dbe
00000330: 51b1 88bd 71aa d4bb 7ee6 803e db25 aa3e
00000340: 941f debe da38 183d 106a eebd bb4c d13e
00000350: 24b9 a4be a32a b6be 34bb d43e 7b9e 373e
00000360: 3f31 96be 825a c9bd fb64 b43d 5c90 533d
00000370: 5b5b b23e 6810 ba3e cb68 be3e baf8 c93e
00000380: 9f65 85bd 0dbe c2be 3deb 683e 7b98 71be
00000390: 9ed3 12be 5504 913e 96ec fa3d 7c03 d5be
000003a0: 3fa9 9bbe 86a8 2c3e 7def 2a3e 783f 2cbe
000003b0: f03d d53d 0879 0bbe 31bc dcbe 54d5 9d3d
000003c0: 76eb a93e dcc1 e1be 53b1 aa3d 10f1 0abe
000003d0: 7a4a d3be 8940 b53d 8637 373e 712a 8c3e
000003e0: 3d28 c03d 9a87 cebd b39e a4be f53b b9bc
000003f0: 7a95 dabe 9aa4 d63e 3a6d 803e 5ffa e33e
0.24105716 -0.36580315 0.33998227 0.2271054 0.0038443827 -0.22215457 0.33996016 -0.4133486
0.009109051 -0.29621312 -0.17929678 -0.0894662 -0.19362967 -0.14153172 -0.27685985 -0.12084437
0.4201181 -0.036413014 0.29333967 -9.969347e-05 -0.23530228 -0.28489172 -0.31715596 0.029632363
0.25894567 -0.2652851 -0.22271137 0.24907193 -0.32944313 -0.16617648 -0.41618168 -0.4244682
-0.14905788 0.19486405 0.25796714 -0.08674387 0.00060733047 -0.30487186 0.009268027 0.057741497
-0.14273423 0.015715476 0.1484689 -0.1657156 -0.00506784 0.12144253 -0.273952 0.28819755
0.38032046 0.3904798 0.36706206 -0.042488288 -0.030532056 -0.12299135 0.43130636 -0.15715294
0.35523134 -0.2051062 -0.04710639 -0.42712855 0.091928355 -0.44328445 -0.10639084 0.22820362
0.09706305 0.15868193 -0.14001489 -0.27189153 -0.24069591 -0.35685688 -0.12296352 -0.42041183
0.38375187 0.10200998 -0.022468561 0.13634638 0.051494766 0.43188015 0.021308172 -0.13920087
-0.29472864 0.08694416 -0.41771692 0.077434845 0.28644434 -0.004864028 -0.117387675 0.32511202
-0.19330792 0.041146904 0.40789092 -0.31531507 0.3071814 0.26245707 -0.1365069 0.19789863
-0.079292715 0.19959415 -0.20160583 -0.436108 -0.23677279 -0.07457967 -0.1497815 0.06680283
0.39396068 -0.3916716 -0.3701923 0.06714323 -0.16573852 -0.2723537 -0.033320382 -0.35963207
-0.09141049 -0.21443489 0.050519317 0.3665217 -0.25273284 0.4178836 -0.3366111 0.017900841
0.18491906 -0.06565193 -0.31885073 -0.33605894 0.20079623 0.24590455 -0.40929756 -0.3827195
0.4430634 0.22073668 0.1522116 0.05707419 0.06180142 -0.2977727 0.23749596 0.34941143
-0.23037252 0.037041135 0.009079729 0.0024746903 -0.40832108 -0.3670031 -0.14466172 0.08389642
0.18755732 0.21182527 -0.17474431 -0.24202114 -0.28495273 0.19522251 0.06853041 0.19843686
0.08009443 -0.016849102 -0.21986231 0.416034 0.20309068 0.42355734 -0.34641528 -0.20478515
0.011932882 0.22479789 -0.17513737 0.1934072 -0.16740239 0.16222648 0.13861422 -0.41729313
0.077916786 0.056575295 0.09280822 0.014670666 0.35637888 0.2574878 0.44685292 -0.2763434
0.21851087 0.3412994 -0.41592595 0.32531935 0.43700632 0.22272864 -0.14685844 -0.4390917
0.30707976 -0.17554468 -0.407449 0.42577726 -0.16215633 0.40875804 0.10905362 0.013297242
0.26167494 0.40914652 -0.440862 -0.008213889 -0.04913763 0.0701053 -0.42907712 -0.2063684
0.22679032 -0.1721638 0.23907405 -0.18457733 -0.066744454 -0.0064900448 0.25175852 0.33232006
-0.43383467 0.037163593 -0.116413236 0.40878853 -0.321725 -0.35579404 0.41549075 0.17931549
-0.29334447 -0.09831716 0.08808323 0.051651344 0.34835324 0.36340642 0.37189326 0.39447576
-0.06513523 -0.38035622 0.22745986 -0.23593323 -0.14338538 0.28323618 0.122521564 -0.4160422
-0.30402562 0.16861162 0.1669292 -0.16821086 0.10412204 -0.13620389 -0.4311233 0.07706705
0.33187455 -0.44093215 0.08334603 -0.1356852 -0.4126776 0.088502 0.17892274 0.2737613
0.09382675 -0.10084458 -0.32152328 -0.022611598 -0.42692167 0.41922456 0.25083333 0.44526955

pre_net1.0.bias f4 [512]
00000000: af0d 763e 9962 1abe 5fb4 f63d 282d 0abe
00000010: 1feb babe 08f0 033c 657f d03e f006 84be
00000020: d009 a63e 7d7e 5b3d 6046 b0be e3bb 573e
00000030: cd0d 82be 74b6 033e f813 4dbd 7238 8dbe
00000040: adb0 6d3e 4d05 6e3d 72e4 a23e 467b b93e
00000050: c852 60be 8f42 9c3d 38cd 57be cde4 c4be
00000060: df57 b4bd 2855 7f3e fb07 923e fef9 213e
00000070: cd2c e3bd 59c9 e0bd f476 433d 2456 2ebe
00000080: 17ab 49be 8aa9 df3e 9af3 803d 7a6b 0c3e
00000090: d60f 22be 91c6 8cbe 21bd af3e a83a 023e
000000a0: 7819 803e 37a4 c83d 6a5e dfbe 676c 63be
000000b0: 4fdb 8d3d 0914 a93e 4c95 1fbe 7384 febd
000000c0: f721 59bd f8fb 4a3e 2069 cb3e 205d 853d
000000d0: 323c d1be 6456 06bd ddab 1cbe 50cd b73e
000000e0: 8b03 c23b 2634 a33e 39f3 243e d576 10be
000000f0: 3529 a13e 9fed 1fbe 7d2c 23be b9e6 dfbd
00000100: 9364 953e e1f4 123e 7d79 7c3d 9851 903e
00000110: 8bfd 953e ea0a 11be b5fb 2ebd 119d d0be
00000120: 1194 45be 6b0e 3cbe 588a 38be bcfb 35be
00000130: f585 b83e fb06 433e df45 82be c682 b23d
00000140: 1155 903e 01b7 db3d 6429 c0be 9ba4 9f3e
00000150: 0337 90be 5935 833e b16f d63d 8fb6 c93e
00000160: 53fc 813d b693 85bd a7e8 1bbe 02df 413e
00000170: fc14 063d 4343 9f3d 01db ad3e 354a 263d
00000180: 6acc debe 6a3b d03e fcb0 cebe 3bbc a53e
00000190: f0aa 853e 3dc1 30bd 8203 c03e 502d 9bbc
000001a0: e26d dbbd e53a 92be 0ab8 9fbd 2e31 bebd
000001b0: 0cfe b93d b306 90be fef6 84be 6ca9 a23e
000001c0: a349 11be 052f 993e c4d5 f33d eda5 9e3d
000001d0: 745f b1be 88c5 b1be 5c46 a0be 99cf e4be
000001e0: b080 66be e055 c53e d8d0 0fbe d750 e9bc
000001f0: 63a5 c33e 219c d7be 0d17 c13d f8dc 12bd
00000200: 8740 413e c6cb fabc 3312 dfbe 3ec6 a93e
00000210: bebe b2be 6a0e 2bbe 5126 72be 5ced e13e
00000220: f8f4 ad3e 6ac3 263e aa84 5c3a f99f 103e
00000230: 6652 9dbe d441 81be cc20 bebe 2e29 79be
00000240: 4ad0 c3be 5d50 2bbe e26b b0be 22a6 d5be
00000250: 896b cf3e 77da 37be f720 4c3d 8e6d 22be
00000260: 2da4 a33c 3b9a c9be 8b0d 89be f3bd b4bd
00000270: 35f6 9dbe 2a21 74be 6236 aabe ef5e ce3e
00000280: 2c6c 92be f742 b53e 7ceb c5bd 4d51 d13d
00000290: 6efb 0f3e 3eb8 23bd edd2 72be cf51 8f3e
000002a0: e433 a0be 1d8f b33e c9a4 7cbe aa4e b6be
000002b0: fc36 d8bd 5454 283e d2c5 653e ba5e a1be
000002c0: 044c db3e 4597 7cbe 724c b8be 93c2 acbd
000002d0: d84f 383e 54d0 d4be 27c7 1bbc acac 91be
000002e0: 3229 b2be 9615 cbbd 87b4 b73e 7240 ae3e
000002f0: fddd e03e 2daa 453e 0d6b c6be 3aa9 94be
00000300: 7980 c43e 3399 4ebe f78f d53e 3fe7 5bbe
00000310: d36b 5f3e edd1 91bc 21bb 5cbe 36e9 b1be
00000320: fade 813d 177a da3e 13c8 29be 11af a93e
00000330: 5c36 723e 3d37 b4be 8eba dcbe fba8 94be
00000340: c651 a63e 23fe 70be 0932 673b 8c57 2bbd
00000350: ba6d d2be ae7a 60be 7aca 653b 7f53 2cbe
00000360: 479f 4dbc 9ec5 d5be 017e e5bc 17e9 3bbd
00000370: 3541 453e 0129 28bd 9925 41be 1b6c 7fbe
00000380: 5cd1 f9bd b1f4 a9be d970 80be 5f18 083e
00000390: b47f 263c 7c38 79be ac5d 5bbe 8a7e 49be
000003a0: 4e09 c4be bd3c 993d f0f1 e3be a97a a73e
000003b0: 32a8 cf3e 1513 bf3e e8c6 bf3e 9d91 773e
000003c0: 2bf0 fc3d 9c08 823e 4101 25be 10e4 9f3e
000003d0: a5de ad3e 3d22 88bd 77e7 dbbe aae6 dd3e
000003e0: 057d 533d 36eb df3e c9d6 cdbe e79d 4c3c
000003f0: da93 d2bd 1a2c 84be 03bc 4fbd d4de 503e
0.24028657 -0.15076675 0.12046122 -0.13493788 -0.36507508 0.008052833 0.40722194 -0.25786543
0.3242936 0.053587426 -0.34428692 0.21067767 -0.25401154 0.12862569 -0.05006787 -0.27582127
0.23211928 0.058110524 0.31814915 0.36226863 -0.21906579 0.076298825 -0.21074378 -0.3845581
-0.088058226 0.24934828 0.28521714 0.1581802 -0.110925294 -0.10975904 0.047720864 -0.17025048
-0.19694172 0.43684036 0.06296463 0.13712874 -0.15826353 -0.27495244 0.3432398 0.12717688
0.2501943 0.097969465 -0.4362672 -0.22209321 0.069265954 0.33023098 -0.15584296 -0.124276064
-0.053010907 0.19822681 0.39728642 0.06511903 -0.40866238 -0.032797232 -0.15299936 0.35898829
0.0059208325 0.31875724 0.16108407 -0.14107831 0.3147675 -0.15617989 -0.1593494 -0.10932679
0.29178295 0.14351226 0.061639298 0.2818725 0.29295 -0.1416432 -0.042720515 -0.40744832
-0.19294764 -0.18364875 -0.18021524 -0.1777181 0.360397 0.19045632 -0.25443932 0.08716349
0.281899 0.107282646 -0.3753158 0.31180272 -0.2816697 0.2562664 0.10470522 0.39397094
0.06346955 -0.06522314 -0.15225469 0.18932727 0.032734856 0.07776501 0.3395615 0.040598113
-0.4351533 0.4067033 -0.40369403 0.3237017 0.26106977 -0.043153036 0.37502676 -0.018942505
-0.10714318 -0.28560558 -0.077987745 -0.09286724 0.09081659 -0.2813011 -0.2596969 0.31769884
-0.14188246 0.29918686 0.11906007 0.077464916 -0.34643137 -0.34721017 -0.3130368 -0.44689634
-0.22510028 0.3854208 -0.14044511 -0.02848093 0.38212118 -0.42111304 0.09428225 -0.035855263
0.18872271 -0.030614745 -0.43568572 0.3315906 -0.3491115 -0.16704717 -0.23647429 0.44126403
0.3397596 0.16285482 0.00084121025 0.14123525 -0.30726928 -0.25245535 -0.37134397 -0.24332115
-0.3824485 -0.16729875 -0.34457308 -0.41728312 0.4051173 -0.17954431 0.049836125 -0.15862104
0.019975746 -0.3937548 -0.26768145 -0.088252924 -0.30851904 -0.23840776 -0.33244616 0.40306804
-0.28598154 0.35402653 -0.09664056 0.10220585 0.14060757 -0.03997063 -0.23713274 0.27992103
-0.3128959 0.35070124 -0.24672236 -0.3560689 -0.105573624 0.16438419 0.22438744 -0.31517583
0.42831433 -0.2466708 -0.35995823 -0.084355496 0.17999208 -0.41565192 -0.009507931 -0.2845205
-0.34797055 -0.099162266 0.3587992 0.34033543 0.43919364 0.19303198 -0.38753548 -0.2903536
0.38379267 -0.20175628 0.417114 -0.21474932 0.21818475 -0.017800296 -0.21555759 -0.34748238
0.063413575 0.42671272 -0.16580229 0.33141378 0.23653549 -0.35198393 -0.4311108 -0.29035172
0.32484263 -0.23534445 0.0035277626 -0.041831538 -0.4109934 -0.21921799 0.0035063312 -0.16828726
-0.012550182 -0.41752332 -0.028014185 -0.04587659 0.19263156 -0.04105473 -0.18861999 -0.24943583
-0.12198135 -0.33194497 -0.25086096 0.13290547 0.010162283 -0.24337953 -0.21422452 -0.19677177
-0.3828835 0.07482288 -0.4452052 0.3271077 0.4055801 0.37319246 0.3745644 0.24176641
0.12350496 0.25397193 -0.1611376 0.31228685 0.33958927 -0.066471554 -0.4295003 0.43340045
0.0516329 0.4373414 -0.4020293 0.012488819 -0.10282107 -0.25814897 -0.05071641 0.20397502

pre_net1.1.weight f4 [512]
00000000: 0000 803f 0000 803f 0000 803f 0000 803f
00000010: 0000 803f 0000 803f 0000 803f 0000 803f
00000020: 0000 803f 0000 803f 0000 803f 0000 803f
00000030: 0000 803f 0000 803f 0000 803f 0000 803f
00000040: 0000 803f 0000 803f 0000 803f 0000 803f
00000050: 0000 803f 0000 803f 0000 803f 0000 803f
00000060: 0000 803f 0000 803f 0000 803f 0000 803f
00000070: 0000 803f 0000 803f 0000 803f 0000 803f
00000080: 0000 803f 0000 803f 0000 803f 0000 803f
00000090: 0000 803f 0000 803f 0000 803f 0000 803f
000000a0: 0000 803f 0000 803f 0000 803f 0000 803f
000000b0: 0000 803f 0000 803f 0000 803f 0000 803f
000000c0: 0000 803f 0000 803f 0000 803f 0000 803f
000000d0: 0000 803f 0000 803f 0000 803f 0000 803f
000000e0: 0000 803f 0000 803f 0000 803f 0000 803f
000000f0: 0000 803f 0000 803f 0000 803f 0000 803f
00000100: 0000 803f 0000 803f 0000 803f 0000 803f
00000110: 0000 803f 0000 803f 0000 803f 0000 803f
00000120: 0000 803f 0000 803f 0000 803f 0000 803f
00000130: 0000 803f 0000 803f 0000 803f 0000 803f
00000140: 0000 803f 0000 803f 0000 803f 0000 803f
00000150: 0000 803f 0000 803f 0000 803f 0000 803f
00000160: 0000 803f 0000 803f 0000 803f 0000 803f
00000170: 0000 803f 0000 803f 0000 803f 0000 803f
00000180: 0000 803f 0000 803f 0000 803f 0000 803f
00000190: 0000 803f 0000 803f 0000 803f 0000 803f
000001a0: 0000 803f 0000 803f 0000 803f 0000 803f
000001b0: 0000 803f 0000 803f 0000 803f 0000 803f
000001c0: 0000 803f 0000 803f 0000 803f 0000 803f
000001d0: 0000 803f 0000 803f 0000 803f 0000 803f
000001e0: 0000 803f 0000 803f 0000 803f 0000 803f
000001f0: 0000 803f 0000 803f 0000 803f 0000 803f
00000200: 0000 803f 0000 803f 0000 803f 0000 803f
00000210: 0000 803f 0000 803f 0000 803f 0000 803f
00000220: 0000 803f 0000 803f 0000 803f 0000 803f
00000230: 0000 803f 0000 803f 0000 803f 0000 803f
00000240: 0000 803f 0000 803f 0000 803f 0000 803f
00000250: 0000 803f 0000 803f 0000 803f 0000 803f
00000260: 0000 803f 0000 803f 0000 803f 0000 803f
00000270: 0000 803f 0000 803f 0000 803f 0000 803f
00000280: 0000 803f 0000 803f 0000 803f 0000 803f
00000290: 0000 803f 0000 803f 0000 803f 0000 803f
000002a0: 0000 803f 0000 803f 0000 803f 0000 803f
000002b0: 0000 803f 0000 803f 0000 803f 0000 803f
000002c0: 0000 803f 0000 803f 0000 803f 0000 803f
000002d0: 0000 803f 0000 803f 0000 803f 0000 803f
000002e0: 0000 803f 0000 803f 0000 803f 0000 803f
000002f0: 0000 803f 0000 803f 0000 803f 0000 803f
00000300: 0000 803f 0000 803f 0000 803f 0000 803f
00000310: 0000 803f 0000 803f 0000 803f 0000 803f
00000320: 0000 803f 0000 803f 0000 803f 0000 803f
00000330: 0000 803f 0000 803f 0000 803f 0000 803f
00000340: 0000 803f 0000 803f 0000 803f 0000 803f
00000350: 0000 803f 0000 803f 0000 803f 0000 803f
00000360: 0000 803f 0000 803f 0000 803f 0000 803f
00000370: 0000 803f 0000 803f 0000 803f 0000 803f
00000380: 0000 803f 0000 803f 0000 803f 0000 803f
00000390: 0000 803f 0000 803f 0000 803f 0000 803f
000003a0: 0000 803f 0000 803f 0000 803f 0000 803f
000003b0: 0000 803f 0000 803f 0000 803f 0000 803f
000003c0: 0000 803f 0000 803f 0000 803f 0000 803f
000003d0: 0000 803f 0000 803f 0000 803f 0000 803f
000003e0: 0000 803f 0000 803f 0000 803f 0000 803f
000003f0: 0000 803f 0000 803f 0000 803f 0000 803f
1.0 1.0 1.0 1.0 1.0 1.0 1.0 1.0
1.0 1.0 1.0 1.0 1.0 1.0 1.0 1.0
1.0 1.0 1.0 1.0 1.0 1.0 1.0 1.0
1.0 1.0 1.0 1.0 1.0 1.0 1.0 1.0
1.0 1.0 1.0 1.0 1.0 1.0 1.0 1.0
1.0 1.0 1.0 1.0 1.0 1.0 1.0 1.0
1.0 1.0 1.0 1.0 1.0 1.0 1.0 1.0
1.0 1.0 1.0 1.0 1.0 1.0 1.0 1.0
1.0 1.0 1.0 1.0 1.0 1.0 1.0 1.0
1.0 1.0 1.0 1.0 1.0 1.0 1.0 1.0
1.0 1.0 1.0 1.0 1.0 1.0 1.0 1.0
1.0 1.0 1.0 1.0 1.0 1.0 1.0 1.0
1.0 1.0 1.0 1.0 1.0 1.0 1.0 1.0
1.0 1.0 1.0 1.0 1.0 1.0 1.0 1.0
1.0 1.0 1.0 1.0 1.0 1.0 1.0 1.0
1.0 1.0 1.0 1.0 1.0 1.0 1.0 1.0
1.0 1.0 1.0 1.0 1.0 1.0 1.0 1.0
1.0 1.0 1.0 1.0 1.0 1.0 1.0 1.0
1.0 1.0 1.0 1.0 1.0 1.0 1.0 1.0
1.0 1.0 1.0 1.0 1.0 1.0 1.0 1.0
1.0 1.0 1.0 1.0 1.0 1.0 1.0 1.0
1.0 1.0 1.0 1.0 1.0 1.0 1.0 1.0
1.0 1.0 1.0 1.0 1.0 1.0 1.0 1.0
1.0 1.0 1.0 1.0 1.0 1.0 1.0 1.0
1.0 1.0 1.0 1.0 1.0 1.0 1.0 1.0
1.0 1.0 1.0 1.0 1.0 1.0 1.0 1.0
1.0 1.0 1.0 1.0 1.0 1.0 1.0 1.0
1.0 1.0 1.0 1.0 1.0 1.0 1.0 1.0
1.0 1.0 1.0 1.0 1.0 1.0 1.0 1.0
1.0 1.0 1.0 1.0 1.0 1.0 1.0 1.0
1.0 1.0 1.0 1.0 1.0 1.0 1.0 1.0
1.0 1.0 1.0 1.0 1.0 1.0 1.0 1.0

pre_net1.1.bias f4 [512]
00000000: 0000 0000 0000 0000 0000 0000 0000 0000
00000010: 0000 0000 0000 0000 0000 0000 0000 0000
00000020: 0000 0000 0000 0000 0000 0000 0000 0000
00000030: 0000 0000 0000 0000 0000 0000 0000 0000
00000040: 0000 0000 0000 0000 0000 0000 0000 0000
00000050: 0000 0000 0000 0000 0000 0000 0000 0000
00000060: 0000 0000 0000 0000 0000 0000 0000 0000
00000070: 0000 0000 0000 0000 0000 0000 0000 0000
00000080: 0000 0000 0000 0000 0000 0000 0000 0000
00000090: 0000 0000 0000 0000 0000 0000 0000 0000
000000a0: 0000 0000 0000 0000 0000 0000 0000 0000
000000b0: 0000 0000 0000 0000 0000 0000 0000 0000
000000c0: 0000 0000 0000 0000 0000 0000 0000 0000
000000d0: 0000 0000 0000 0000 0000 0000 0000 0000
000000e0: 0000 0000 0000 0000 0000 0000 0000 0000
000000f0: 0000 0000 0000 0000 0000 0000 0000 0000
00000100: 0000 0000 0000 0000 0000 0000 0000 0000
00000110: 0000 0000 0000 0000 0000 0000 0000 0000
00000120: 0000 0000 0000 0000 0000 0000 0000 0000
00000130: 0000 0000 0000 0000 0000 0000 0000 0000
00000140: 0000 0000 0000 0000 0000 0000 0000 0000
00000150: 0000 0000 0000 0000 0000 0000 0000 0000
00000160: 0000 0000 0000 0000 0000 0000 0000 0000
00000170: 0000 0000 0000 0000 0000 0000 0000 0000
00000180: 0000 0000 0000 0000 0000 0000 0000 0000
00000190: 0000 0000 0000 0000 0000 0000 0000 0000
000001a0: 0000 0000 0000 0000 0000 0000 0000 0000
000001b0: 0000 0000 0000 0000 0000 0000 0000 0000
000001c0: 0000 0000 0000 0000 0000 0000 0000 0000
000001d0: 0000 0000 0000 0000 0000 0000 0000 0000
000001e0: 0000 0000 0000 0000 0000 0000 0000 0000
000001f0: 0000 0000 0000 0000 0000 0000 0000 0000
00000200: 0000 0000 0000 0000 0000 0000 0000 0000
00000210: 0000 0000 0000 0000 0000 0000 0000 0000
00000220: 0000 0000 0000 0000 0000 0000 0000 0000
00000230: 0000 0000 0000 0000 0000 0000 0000 0000
00000240: 0000 0000 0000 0000 0000 0000 0000 0000
00000250: 0000 0000 0000 0000 0000 0000 0000 0000
00000260: 0000 0000 0000 0000 0000 0000 0000 0000
00000270: 0000 0000 0000 0000 0000 0000 0000 0000
00000280: 0000 0000 0000 0000 0000 0000 0000 0000
00000290: 0000 0000 0000 0000 0000 0000 0000 0000
000002a0: 0000 0000 0000 0000 0000 0000 0000 0000
000002b0: 0000 0000 0000 0000 0000 0000 0000 0000
000002c0: 0000 0000 0000 0000 0000 0000 0000 0000
000002d0: 0000 0000 0000 0000 0000 0000 0000 0000
000002e0: 0000 0000 0000 0000 0000 0000 0000 0000
000002f0: 0000 0000 0000 0000 0000 0000 0000 0000
00000300: 0000 0000 0000 0000 0000 0000 0000 0000
00000310: 0000 0000 0000 0000 0000 0000 0000 0000
00000320: 0000 0000 0000 0000 0000 0000 0000 0000
00000330: 0000 0000 0000 0000 0000 0000 0000 0000
00000340: 0000 0000 0000 0000 0000 0000 0000 0000
00000350: 0000 0000 0000 0000 0000 0000 0000 0000
00000360: 0000 0000 0000 0000 0000 0000 0000 0000
00000370: 0000 0000 0000 0000 0000 0000 0000 0000
00000380: 0000 0000 0000 0000 0000 0000 0000 0000
00000390: 0000 0000 0000 0000 0000 0000 0000 0000
000003a0: 0000 0000 0000 0000 0000 0000 0000 0000
000003b0: 0000 0000 0000 0000 0000 0000 0000 0000
000003c0: 0000 0000 0000 0000 0000 0000 0000 0000
000003d0: 0000 0000 0000 0000 0000 0000 0000 0000
000003e0: 0000 0000 0000 0000 0000 0000 0000 0000
000003f0: 0000 0000 0000 0000 0000 0000 0000 0000
0.0 0.0 0.0 0.0 0.0 0.0 0.0 0.0
0.0 0.0 0.0 0.0 0.0 0.0 0.0 0.0
0.0 0.0 0.0 0.0 0.0 0.0 0.0 0.0
0.0 0.0 0.0 0.0 0.0 0.0 0.0 0.0
0.0 0.0 0.0 0.0 0.0 0.0 0.0 0.0
0.0 0.0 0.0 0.0 0.0 0.0 0.0 0.0
0.0 0.0 0.0 0.0 0.0 0.0 0.0 0.0
0.0 0.0 0.0 0.0 0.0 0.0 0.0 0.0
0.0 0.0 0.0 0.0 0.0 0.0 0.0 0.0
0.0 0.0 0.0 0.0 0.0 0.0 0.0 0.0
0.0 0.0 0.0 0.0 0.0 0.0 0.0 0.0
0.0 0.0 0.0 0.0 0.0 0.0 0.0 0.0
0.0 0.0 0.0 0.0 0.0 0.0 0.0 0.0
0.0 0.0 0.0 0.0 0.0 0.0 0.0 0.0
0.0 0.0 0.0 0.0 0.0 0.0 0.0 0.0
0.0 0.0 0.0 0.0 0.0 0.0 0.0 0.0
0.0 0.0 0.0 0.0 0.0 0.0 0.0 0.0
0.0 0.0 0.0 0.0 0.0 0.0 0.0 0.0
0.0 0.0 0.0 0.0 0.0 0.0 0.0 0.0
0.0 0.0 0.0 0.0 0.0 0.0 0.0 0.0
0.0 0.0 0.0 0.0 0.0 0.0 0.0 0.0
0.0 0.0 0.0 0.0 0.0 0.0 0.0 0.0
0.0 0.0 0.0 0.0 0.0 0.0 0.0 0.0
0.0 0.0 0.0 0.0 0.0 0.0 0.0 0.0
0.0 0.0 0.0 0.0 0.0 0.0 0.0 0.0
0.0 0.0 0.0 0.0 0.0 0.0 0.0 0.0
0.0 0.0 0.0 0.0 0.0 0.0 0.0 0.0
0.0 0.0 0.0 0.0 0.0 0.0 0.0 0.0
0.0 0.0 0.0 0.0 0.0 0.0 0.0 0.0
0.0 0.0 0.0 0.0 0.0 0.0 0.0 0.0
0.0 0.0 0.0 0.0 0.0 0.0 0.0 0.0
0.0 0.0 0.0 0.0 0.0 0.0 0.0 0.0

pre_net2.0.weight f4 [256, 512]
00000000: 0824 76bc c988 5e3c 0257 bbbc 6849 0bbd
00000010: 5c80 c4bc b22a 99bc 58d6 05bd 74ac fbbc
00000020: b8f1 31bd 2368 ac3c ec89 473b 5d82 3f3b
00000030: f00a c6bb 6201 ce3c ca9c 09bc dc49 613c
00000040: 90fe f13c 62ae 9dbb b013 0d3d c174 323b
00000050: 6eaa 21bc 4788 493a d547 1dbd e1eb 323d
00000060: 02ea 63bc ba1a 91bc a6bc 9d3c 03d3 05bc
00000070: e67a b6bc 12b6 d4bc f32b f4bc 26bb 273c
00000080: 2aad 50bc f16e 54bc 52d3 11bd 9828 163d
00000090: 9993 803b 96fc 1c3d 329d c23b 6672 f6bc
000000a0: da30 dc3c 53a0 8dbc f62b 113d 8238 513c
000000b0: b624 043d 64db 9c3c 5eff 693c 53e9 56bb
000000c0: ddb8 0b3c fe6d 8a3c 13b1 1abd ed69 95bc
000000d0: 93fc 9dbc 4704 99bc 45dd 163d dfee 823c
000000e0: d605 f6bc e23d 11bb a542 ee3c ffd9 01bc
000000f0: 7607 15bd b47f 73b9 db47 23bd 81c0 273d
00000100: a697 af3c 7fb1 113d 4110 f83c f362 fdbc
00000110: f2ab 1a3c 2b79 c43c bef8 cbbb 6360 2d3c
00000120: f18e ba3c 7a8e c5bc 5b1d 0d3c 5226 38bc
00000130: 4bb3 07bd e572 b7bc ebe7 5dbc a91e d4bb
00000140: 876d b03c fef2 3bbb 4a6c 69bc 7f30 2dbd
00000150: f040 8c3b b6d8 993c c357 2e3c d140 f33c
00000160: eaa6 21bc e0f9 253d 0af0 f0bc 481d 91bc
00000170: 162e da3c 9fe5 32bd b4cb 9939 f30e 9ebc
00000180: a980 103d a461 253d 1df4 923c 08c2 1cbd
00000190: 83e7 ce3b 9eab e53b 9911 333d 736d 3d3c
000001a0: ec69 26bc 68ff 893c fdc1 31bc db7e 2abd
000001b0: 1af8 ab3c 1d3a 8bbc ec55 9a3c 77cc 803c
000001c0: d978 c83c b4fc a83c ce5c a53c 4cfc 993c
000001d0: d7b8 9c3c 45b9 2b3d a2a2 83bb ee98 c2bc
000001e0: ac59 86bc e575 813c 9c01 d7bc 3a34 083d
000001f0: beaf 02bd 8f55 d7bc 5915 10bd 9a06 253d
00000200: 8bb6 e13c 6c85 1cbc ddca 25bd 5d0a 46bc
00000210: 787f 01bd e380 b63c 7132 313d acb1 113d
00000220: a3cb ac3c 6ed2 05bd 24db ac3b 7d46 a0bc
00000230: 5062 413c 280f c63c d2a4 2f3d 4b42 00bd
00000240: adf8 e4bb db3c 20bb 136e ff3c 3869 32bc
00000250: e819 1fbd 3c73 29bc 80d4 b23c 89d0 bcbc
00000260: f2d3 d43c 46e4 503c 2379 70bc 245d 633a
00000270: 3620 c3bc 7036 1abd a6be 24bd 838b d43a
00000280: e2f8 9f3c b27a 84bb a2c7 053d d44b 053d
00000290: 7f84 063d 1683 0bbd ff1e 0c3b dda4 3ebb
000002a0: f922 0cbd 3879 e4bb 1f7b 033d 1711 e6bc
000002b0: 174d 103c 54a2 3d3c 3871 c7bb e50b 73bc
000002c0: 6afb 903b 35f3 8e3c c697 9abc e3d4 bfbc
000002d0: a195 f43c 29da 033d 5345 733c 2e36 033c
000002e0: 7f36 e2bb 699b 22bd 01d0 a13c 5ad9 2fbd
000002f0: 1967 e93b 2756 a33c 018a 2ebd 4faf 953b
00000300: 5586 0fbd 4d8b a0bc 9cf6 bc3c 582a c5bb
00000310: 7e83 21bd 99be 123d 7e07 0f3b 1534 f8bb
00000320: 61df 09bd 52a6 81bc c333 913c 1da1 f13c
00000330: bafd b1bc f0bb 16bd 26c6 73bc 0de8 8d3b
00000340: 374f eebc fc2c e63c e8b8 a03b a019 15b9
00000350: b0d4 493c 3c6a d63c 83b0 8dbc f49c 2fbd
00000360: 35ff 1a3d f379 293d 1388 89bc 92c6 163c
00000370: 3f6b 203d be68 ce3c aa5f 34bd 535f 983c
00000380: c143 323d b5cf 0f3d 0df9 0cbb f36b 243d
00000390: cdf5 19bd 8e19 d7bc b63b 38bc af5c 983c
000003a0: cddf cebc ff40 07bd aa2b d0bc 7e01 f63b
000003b0: 1e4a 18bd 1ad2 e33c 5f4e 1dbd d031 f7b9
000003c0: b56c 343d 2eac b53a 4c14 f83c a657 d0b8
000003d0: dec2 073d 8939 c53c 7a15 8b3b 7054 10bd
000003e0: 177a 563c 91ef dfbc 8ee6 1b3d 4404 12bd
000003f0: 11d9 2c3d 0f72 30bd f295 01bd e5a9 82bc
-0.015023239 0.013582417 -0.022868637 -0.034005553 -0.023986988 -0.018697117 -0.032675117 -0.03072188
-0.04344341 0.02104575 0.0030447198 0.002922199 -0.0060437843 0.025147144 -0.008399198 0.01375052
0.02954033 -0.004812048 0.034442604 0.0027230235 -0.009867294 0.00076878484 -0.038398582 0.043681983
-0.013910772 -0.01771294 0.019254994 -0.008167985 -0.0222754 -0.025965724 -0.029806113 0.010237491
-0.012736598 -0.012965904 -0.03560192 0.036659807 0.003923845 0.038326822 0.0059391493 -0.030083846
0.026878763 -0.017288363 0.035442315 0.01276982 0.032261573 0.019147582 0.014282076 -0.003279288
0.008527962 0.016898151 -0.037766527 -0.018238986 -0.019285476 -0.018678797 0.036832113 0.015983043
-0.03003208 -0.002216213 0.029084513 -0.0079255095 -0.03638407 -0.00023221859 -0.03986345 0.04095507
0.021434616 0.035569664 0.030281188 -0.030930972 0.009440409 0.023983559 -0.0062247207 0.010582062
0.022773238 -0.02411579 0.008612956 -0.011239605 -0.03312997 -0.022393653 -0.013544063 -0.0064733815
0.021536602 -0.002867877 -0.0142470095 -0.042282578 0.004280202 0.018780094 0.010641041 0.029693993
-0.009866456 0.040521502 -0.029411335 -0.017714158 0.026633304 -0.043676015 0.00029334205 -0.019294238
0.03527895 0.04037632 0.017938668 -0.03827098 0.0063142194 0.0070089838 0.043717954 0.011561739
-0.01015709 0.01684542 -0.010849473 -0.041624885 0.020992327 -0.016995484 0.018839799 0.015722496
0.024471687 0.02062831 0.020185854 0.018797062 0.019131107 0.041924734 -0.00401719 -0.023754563
-0.01640018 0.015803287 -0.026245885 0.033252932 -0.031905882 -0.026285915 -0.03517661 0.0402895
0.027552864 -0.009553295 -0.04047667 -0.012087432 -0.031615704 0.022278255 0.043260995 0.03556983
0.021093195 -0.032671385 0.005275147 -0.019564861 0.011803225 0.024177149 0.042881794 -0.031313222
-0.0069876523 -0.0024450335 0.031180417 -0.010889344 -0.038843066 -0.010342415 0.021829844 -0.023048656
0.02597997 0.012749737 -0.014677319 0.0008673242 -0.02381907 -0.037649572 -0.04022088 0.0016215894
0.019527856 -0.0040429467 0.032661088 0.03254302 0.032841202 -0.03406056 0.002138078 -0.0029089965
-0.03421304 -0.006972458 0.03209984 -0.028084321 0.008807442 0.011574347 -0.006086495 -0.014834379
0.004424502 0.017449955 -0.0188712 -0.023416942 0.029856505 0.032190476 0.014848071 0.008008523
-0.006903469 -0.039698992 0.019752504 -0.042931892 0.007122886 0.019938542 -0.04261208 0.0045680176
-0.03504022 -0.019597674 0.023066811 -0.0060170107 -0.03943204 0.0358263 0.0021824534 -0.007574568
-0.033660296 -0.015826378 0.017724877 0.02949577 -0.021727432 -0.036800325 -0.014878785 0.004330641
-0.029090507 0.028097622 0.004904855 -0.00014219293 0.012318775 0.026173703 -0.017296081 -0.04287429
0.03784104 0.041376065 -0.016788518 0.009202616 0.039164778 0.02519643 -0.044036545 0.018600142
0.043521646 0.035110194 -0.002151075 0.04014201 -0.03758793 -0.026257303 -0.011244705 0.018598882
-0.0252532 -0.03302097 -0.025411446 0.007507502 -0.03718006 0.027810145 -0.03840482 -0.00047148624
0.044048984 0.0013860518 0.030283116 -9.934539e-05 0.033144824 0.024075286 0.0042445036 -0.035236776
0.013090632 -0.027335914 0.03806167 -0.0356486 0.0421992 -0.043077525 -0.03163714 -0.015950153

pre_net2.0.bias f4 [256]
00000000: 7692 143d f082 0c3d ab25 36bc 6d81 9fbb
00000010: dcb6 0a3d 5173 65bc 4651 b3bc ebc0 d9bc
00000020: 7f73 b6bb 8d26 863c 569b 7ebc 95d6 28bd
00000030: 5a6a f0bc f180 9b3c 5b53 25bd 3884 543c
00000040: e640 5f3c 71e2 bfbc b555 47bc 9e52 17bd
00000050: 1010 9cbc 2d1a 003c b737 40bc 3ce1 ff3c
00000060: 961a 9dbc 8f61 143d 67a4 1e3d c11a b2bc
00000070: 3ad3 213d 10d0 173d bba2 01bb 287d 21bd
00000080: 10bb f63c ce04 2cbd 6ea5 503c ca1f 00bc
00000090: e928 f93c 99d1 d33c 16bc 4f38 e3aa f6bb
000000a0: 9521 603c b0c7 e0bc abce e43c 6d8b 863c
000000b0: eec2 023d debd 183d 541f 0bbd 7a2f 2b3d
000000c0: 84bd ddbc 5268 db3a e2df f5bc 0f8f 393c
000000d0: 068b b1bc 42d0 1b3d 5bef b3bc e7b5 9e3c
000000e0: 6ffd 82bb 3271 b0bc 9a7d 6b3c 2a6b 1ebd
000000f0: b68e c2bc e6f3 1a3d 535f 053d 5f40 993c
00000100: c29a 26bd 78ad 493c d9b3 0e3d 90b1 003d
00000110: 3beb 033d 48eb 2ebc 3bd7 1b3c 836e 17bb
00000120: a9d8 2ebd 331e 5c3c a3cf 4c3c af27 27bd
00000130: dacd 103d 89fe af3c 7915 9d3c 0454 023d
00000140: 666f 38bc f982 063d c0f0 c13b 94b5 163c
00000150: b252 9ebb 57ef 903c bfd1 913c 9bf6 163d
00000160: 1582 313d cc3b c1bc 9e01 1dbd 13af 26bd
00000170: d737 0f3a 9245 133d 5955 0938 1f81 d73c
00000180: 9a8f 2ebd baf1 0fbd 8578 08bd 4d9f 2c3c
00000190: 29ef b43c c36f 313d f3cb 0c3d 0ed0 213d
000001a0: ec67 9a3c e260 183d 26dc cb3b 3cea e23c
000001b0: a49a 1ebd 427d 3bbb 6439 f5bc 9793 1f3c
000001c0: 1c9c b4bc 7770 6dbc 097b 8b3b fa22 163d
000001d0: 9415 11bd 83af 1d3d dd99 f83b 14cb c9bc
000001e0: 824f 063b 9e05 2f3d a54f 92bc 3a12 013d
000001f0: cdcd d9bc 277e e33b 69e3 2f3c b4fe 34bd
00000200: a581 933c 9953 843c ccb6 c6bc 759a 073d
00000210: 2388 683b d918 24bd 57f1 a73c 67a0 dd3c
00000220: 081b bcba df91 093d 4107 323d 3b10 653c
00000230: 31d5 f63c 3713 37bb b965 c6bc e522 09bd
00000240: a340 293d 22b1 d0bc 83c4 09bd 9c83 263d
00000250: 2479 1e3d 256f fdbc d9b4 cd3b b983 7c3c
00000260: 9e33 98bb c93d fa3c 6636 2c3d 9730 353c
00000270: 25d0 e9bb 373b bebc a831 f1bc d6a5 2bbd
00000280: 1142 2dbb d1b4 3a3c 9fc7 f93b c0c6 813b
00000290: c1f4 133d 5fa7 85bc 389b be3c 9fd2 b23c
000002a0: d7ab b03c 3da5 75bc 48dd 63bc 6479 80bb
000002b0: 7fc0 f0bc b606 f1bc 40cd 18bd 31b0 cc3b
000002c0: 19d1 23bd 1f23 9abb 8858 48bc ef44 95bc
000002d0: 9b3a 21bd f512 ca3c bcbf 573c 4239 173c
000002e0: 49a0 d43c 5836 063d 5c37 51bc edd9 cbbc
000002f0: f74d 2bbd 29fd f53b 2afa c33c 5807 7f3b
00000300: df6d dcbc e193 213d fb11 b83c 21d8 af3c
00000310: b5b3 efbc 630d babb f1db 1cbd d9fc 123d
00000320: 253c 963c 634b ef3c ee17 c23c b6dd 0d3d
00000330: b2d8 8fbc 7671 7abc 98b9 b3bc 705f a8bc
00000340: 6ad6 bc3b 5902 0ebd daee 383c a6d0 963c
00000350: 29a1 8c3c 3608 7abc bbea 90bc 64fe 6abc
00000360: 93b9 9fbc 765e a5bc 33ce 0e3d 8a0d b6bc
00000370: 150f 7aba c126 3a3b 4c40 f13b cb8e d0bc
00000380: defe 12bd 0bce 2dbd f60f 25bd 8eed c6bc
00000390: 621f 323d 01ab 14bc 53b3 fbbb 7518 b4bc
000003a0: 4a5d 96bc 24f3 4dbc f0da 35bb 849f 2ebd
000003b0: 1106 263d 5633 8abb 7f82 28bd 01f3 a4b9
000003c0: 1ed8 813b 54c7 bd3c 6f35 06bb eae9 b63c
000003d0: 198f e4bb 6ffa 1a3d c8b2 5c3c 1707 173d
000003e0: 73be 4fbc 6a62 f7bc d55b 90bc 38f4 67bc
000003f0: ff9e e03c b1b7 1ebd bd19 983c 2358 58bb
0.03627249 0.03430456 -0.011117379 -0.0048677237 0.033865795 -0.014004544 -0.02188934 -0.026581248
-0.0055679674 0.016375804 -0.015539965 -0.041220266 -0.029347587 0.018982382 -0.040362697 0.0129709765
0.013626313 -0.023423405 -0.01216643 -0.036944024 -0.019050628 0.007818741 -0.011732033 0.03123533
-0.019177716 0.03622585 0.038731005 -0.021741273 0.039508082 0.03706366 -0.0019780833 -0.039426
0.030118495 -0.04199677 0.012734754 -0.007820079 0.030415015 0.02585678 4.9527815e-05 -0.0075276955
0.013679882 -0.027438968 0.027930578 0.016423905 0.03192418 0.037290446 -0.033965424 0.041793324
-0.027067907 0.0016739464 -0.030013982 0.011325612 -0.021672737 0.038040407 -0.02196472 0.019373847
-0.003997497 -0.02153835 0.014373207 -0.03867642 -0.02374969 0.037830256 0.03256161 0.018707452
-0.040674932 0.012309425 0.034839485 0.031419337 0.032206755 -0.010676213 0.009511764 -0.0023106642
-0.042687092 0.013434934 0.012500676 -0.04080933 0.035352565 0.021483677 0.019175278 0.031818405
-0.011257028 0.03283975 0.005918592 0.009198565 -0.0048316354 0.017692251 0.01780021 0.036856275
0.043336947 -0.023588084 -0.03833162 -0.040694308 0.0005463338 0.03595502 3.274283e-05 0.026306687
-0.042617418 -0.035142638 -0.03331806 0.010536027 0.022086697 0.043319475 0.03437419 0.039505057
0.018848382 0.03720177 0.006221312 0.027699582 -0.038721696 -0.0028608595 -0.029934593 0.009739778
-0.022047095 -0.014492146 0.0042566103 0.03665445 -0.03542097 0.03849746 0.0075867013 -0.024632968
0.0020494168 0.042729966 -0.017860243 0.031511523 -0.026587391 0.0069425288 0.010735371 -0.044188216
0.018006155 0.016153144 -0.024257086 0.033106286 0.0035481534 -0.04006276 0.020500822 0.027054025
-0.0014351318 0.03358638 0.04346395 0.01398092 0.030130954 -0.0027935037 -0.024218427 -0.033480544
0.041321408 -0.025475089 -0.033634674 0.040652856 0.038689747 -0.030936787 0.0062776622 0.0154122645
-0.004644825 0.03054704 0.042044066 0.011058948 -0.0071354085 -0.023221595 -0.029442623 -0.0419062
-0.0026437084 0.011395649 0.0076226736 0.0039604604 0.036122087 -0.01631516 0.023267373 0.021828948
0.021566315 -0.014993009 -0.013907738 -0.003920721 -0.029388664 -0.029422145 -0.037305117 0.0062465896
-0.039994333 -0.004703894 -0.012228139 -0.018221347 -0.03936253 0.024667243 0.013168272 0.00922996
0.025955336 0.03276667 -0.012769546 -0.024884189 -0.0418224 0.0075069857 0.023922998 0.003891429
-0.02690786 0.03944767 0.022469511 0.021465363 -0.029260496 -0.0056778654 -0.03829569 0.035885666
0.018339226 0.029210752 0.023693051 0.03463527 -0.017559383 -0.01528584 -0.021939084 -0.02055332
0.005762865 -0.034670208 0.011287415 0.018410038 0.01716669 -0.015260747 -0.017690053 -0.014342878
-0.019497668 -0.020186644 0.034864616 -0.022223253 -0.00095389906 0.0028404447 0.007362401 -0.025458714
-0.03588759 -0.042432826 -0.040298425 -0.024283197 0.04348696 -0.009073974 -0.007681289 -0.021984318
-0.01835503 -0.012570176 -0.0027748905 -0.042632595 0.04053313 -0.0042175455 -0.041140076 -0.0003146157
0.0039625308 0.023166336 -0.0020478626 0.022328336 -0.0069750664 0.03783649 0.013470359 0.036871996
-0.012679684 -0.030198295 -0.017621914 -0.014157347 0.027419565 -0.0387494 0.01856696 -0.0033011518

pre_net2.1.weight f4 [256]
00000000: 0000 803f 0000 803f 0000 803f 0000 803f
00000010: 0000 803f 0000 803f 0000 803f 0000 803f
00000020: 0000 803f 0000 803f 0000 803f 0000 803f
00000030: 0000 803f 0000 803f 0000 803f 0000 803f
00000040: 0000 803f 0000 803f 0000 803f 0000 803f
00000050: 0000 803f 0000 803f 0000 803f 0000 803f
00000060: 0000 803f 0000 803f 0000 803f 0000 803f
00000070: 0000 803f 0000 803f 0000 803f 0000 803f
00000080: 0000 803f 0000 803f 0000 803f 0000 803f
00000090: 0000 803f 0000 803f 0000 803f 0000 803f
000000a0: 0000 803f 0000 803f 0000 803f 0000 803f
000000b0: 0000 803f 0000 803f 0000 803f 0000 803f
000000c0: 0000 803f 0000 803f 0000 803f 0000 803f
000000d0: 0000 803f 0000 803f 0000 803f 0000 803f
000000e0: 0000 803f 0000 803f 0000 803f 0000 803f
000000f0: 0000 803f 0000 803f 0000 803f 0000 803f
00000100: 0000 803f 0000 803f 0000 803f 0000 803f
00000110: 0000 803f 0000 803f 0000 803f 0000 803f
00000120: 0000 803f 0000 803f 0000 803f 0000 803f
00000130: 0000 803f 0000 803f 0000 803f 0000 803f
00000140: 0000 803f 0000 803f 0000 803f 0000 803f
00000150: 0000 803f 0000 803f 0000 803f 0000 803f
00000160: 0000 803f 0000 803f 0000 803f 0000 803f
00000170: 0000 803f 0000 803f 0000 803f 0000 803f
00000180: 0000 803f 0000 803f 0000 803f 0000 803f
00000190: 0000 803f 0000 803f 0000 803f 0000 803f
000001a0: 0000 803f 0000 803f 0000 803f 0000 803f
000001b0: 0000 803f 0000 803f 0000 803f 0000 803f
000001c0: 0000 803f 0000 803f 0000 803f 0000 803f
000001d0: 0000 803f 0000 803f 0000 803f 0000 803f
000001e0: 0000 803f 0000 803f 0000 803f 0000 803f
000001f0: 0000 803f 0000 803f 0000 803f 0000 803f
00000200: 0000 803f 0000 803f 0000 803f 0000 803f
00000210: 0000 803f 0000 803f 0000 803f 0000 803f
00000220: 0000 803f 0000 803f 0000 803f 0000 803f
00000230: 0000 803f 0000 803f 0000 803f 0000 803f
00000240: 0000 803f 0000 803f 0000 803f 0000 803f
00000250: 0000 803f 0000 803f 0000 803f 0000 803f
00000260: 0000 803f 0000 803f 0000 803f 0000 803f
00000270: 0000 803f 0000 803f 0000 803f 0000 803f
00000280: 0000 803f 0000 803f 0000 803f 0000 803f
00000290: 0000 803f 0000 803f 0000 803f 0000 803f
000002a0: 0000 803f 0000 803f 0000 803f 0000 803f
000002b0: 0000 803f 0000 803f 0000 803f 0000 803f
000002c0: 0000 803f 0000 803f 0000 803f 0000 803f
000002d0: 0000 803f 0000 803f 0000 803f 0000 803f
000002e0: 0000 803f 0000 803f 0000 803f 0000 803f
000002f0: 0000 803f 0000 803f 0000 803f 0000 803f
00000300: 0000 803f 0000 803f 0000 803f 0000 803f
00000310: 0000 803f 0000 803f 0000 803f 0000 803f
00000320: 0000 803f 0000 803f 0000 803f 0000 803f
00000330: 0000 803f 0000 803f 0000 803f 0000 803f
00000340: 0000 803f 0000 803f 0000 803f 0000 803f
00000350: 0000 803f 0000 803f 0000 803f 0000 803f
00000360: 0000 803f 0000 803f 0000 803f 0000 803f
00000370: 0000 803f 0000 803f 0000 803f 0000 803f
00000380: 0000 803f 0000 803f 0000 803f 0000 803f
00000390: 0000 803f 0000 803f 0000 803f 0000 803f
000003a0: 0000 803f 0000 803f 0000 803f 0000 803f
000003b0: 0000 803f 0000 803f 0000 803f 0000 803f
000003c0: 0000 803f 0000 803f 0000 803f 0000 803f
000003d0: 0000 803f 0000 803f 0000 803f 0000 803f
000003e0: 0000 803f 0000 803f 0000 803f 0000 803f
000003f0: 0000 803f 0000 803f 0000 803f 0000 803f
1.0 1.0 1.0 1.0 1.0 1.0 1.0 1.0
1.0 1.0 1.0 1.0 1.0 1.0 1.0 1.0
1.0 1.0 1.0 1.0 1.0 1.0 1.0 1.0
1.0 1.0 1.0 1.0 1.0 1.0 1.0 1.0
1.0 1.0 1.0 1.0 1.0 1.0 1.0 1.0
1.0 1.0 1.0 1.0 1.0 1.0 1.0 1.0
1.0 1.0 1.0 1.0 1.0 1.0 1.0 1.0
1.0 1.0 1.0 1.0 1.0 1.0 1.0 1.0
1.0 1.0 1.0 1.0 1.0 1.0 1.0 1.0
1.0 1.0 1.0 1.0 1.0 1.0 1.0 1.0
1.0 1.0 1.0 1.0 1.0 1.0 1.0 1.0
1.0 1.0 1.0 1.0 1.0 1.0 1.0 1.0
1.0 1.0 1.0 1.0 1.0 1.0 1.0 1.0
1.0 1.0 1.0 1.0 1.0 1.0 1.0 1.0
1.0 1.0 1.0 1.0 1.0 1.0 1.0 1.0
1.0 1.0 1.0 1.0 1.0 1.0 1.0 1.0
1.0 1.0 1.0 1.0 1.0 1.0 1.0 1.0
1.0 1.0 1.0 1.0 1.0 1.0 1.0 1.0
1.0 1.0 1.0 1.0 1.0 1.0 1.0 1.0
1.0 1.0 1.0 1.0 1.0 1.0 1.0 1.0
1.0 1.0 1.0 1.0 1.0 1.0 1.0 1.0
1.0 1.0 1.0 1.0 1.0 1.0 1.0 1.0
1.0 1.0 1.0 1.0 1.0 1.0 1.0 1.0
1.0 1.0 1.0 1.0 1.0 1.0 1.0 1.0
1.0 1.0 1.0 1.0 1.0 1.0 1.0 1.0
1.0 1.0 1.0 1.0 1.0 1.0 1.0 1.0
1.0 1.0 1.0 1.0 1.0 1.0 1.0 1.0
1.0 1.0 1.0 1.0 1.0 1.0 1.0 1.0
1.0 1.0 1.0 1.0 1.0 1.0 1.0 1.0
1.0 1.0 1.0 1.0 1.0 1.0 1.0 1.0
1.0 1.0 1.0 1.0 1.0 1.0 1.0 1.0
1.0 1.0 1.0 1.0 1.0 1.0 1.0 1.0

pre_net2.1.bias f4 [256]
00000000: 0000 0000 0000 0000 0000 0000 0000 0000
00000010: 0000 0000 0000 0000 0000 0000 0000 0000
00000020: 0000 0000 0000 0000 0000 0000 0000 0000
00000030: 0000 0000 0000 0000 0000 0000 0000 0000
00000040: 0000 0000 0000 0000 0000 0000 0000 0000
00000050: 0000 0000 0000 0000 0000 0000 0000 0000
00000060: 0000 0000 0000 0000 0000 0000 0000 0000
00000070: 0000 0000 0000 0000 0000 0000 0000 0000
00000080: 0000 0000 0000 0000 0000 0000 0000 0000
00000090: 0000 0000 0000 0000 0000 0000 0000 0000
000000a0: 0000 0000 0000 0000 0000 0000 0000 0000
000000b0: 0000 0000 0000 0000 0000 0000 0000 0000
000000c0: 0000 0000 0000 0000 0000 0000 0000 0000
000000d0: 0000 0000 0000 0000 0000 0000 0000 0000
000000e0: 0000 0000 0000 0000 0000 0000 0000 0000
000000f0: 0000 0000 0000 0000 0000 0000 0000 0000
00000100: 0000 0000 0000 0000 0000 0000 0000 0000
00000110: 0000 0000 0000 0000 0000 0000 0000 0000
00000120: 0000 0000 0000 0000 0000 0000 0000 0000
00000130: 0000 0000 0000 0000 0000 0000 0000 0000
00000140: 0000 0000 0000 0000 0000 0000 0000 0000
00000150: 0000 0000 0000 0000 0000 0000 0000 0000
00000160: 0000 0000 0000 0000 0000 0000 0000 0000
00000170: 0000 0000 0000 0000 0000 0000 0000 0000
00000180: 0000 0000 0000 0000 0000 0000 0000 0000
00000190: 0000 0000 0000 0000 0000 0000 0000 0000
000001a0: 0000 0000 0000 0000 0000 0000 0000 0000
000001b0: 0000 0000 0000 0000 0000 0000 0000 0000
000001c0: 0000 0000 0000 0000 0000 0000 0000 0000
000001d0: 0000 0000 0000 0000 0000 0000 0000 0000
000001e0: 0000 0000 0000 0000 0000 0000 0000 0000
000001f0: 0000 0000 0000 0000 0000 0000 0000 0000
00000200: 0000 0000 0000 0000 0000 0000 0000 0000
00000210: 0000 0000 0000 0000 0000 0000 0000 0000
00000220: 0000 0000 0000 0000 0000 0000 0000 0000
00000230: 0000 0000 0000 0000 0000 0000 0000 0000
00000240: 0000 0000 0000 0000 0000 0000 0000 0000
00000250: 0000 0000 0000 0000 0000 0000 0000 0000
00000260: 0000 0000 0000 0000 0000 0000 0000 0000
00000270: 0000 0000 0000 0000 0000 0000 0000 0000
00000280: 0000 0000 0000 0000 0000 0000 0000 0000
00000290: 0000 0000 0000 0000 0000 0000 0000 0000
000002a0: 0000 0000 0000 0000 0000 0000 0000 0000
000002b0: 0000 0000 0000 0000 0000 0000 0000 0000
000002c0: 0000 0000 0000 0000 0000 0000 0000 0000
000002d0: 0000 0000 0000 0000 0000 0000 0000 0000
000002e0: 0000 0000 0000 0000 0000 0000 0000 0000
000002f0: 0000 0000 0000 0000 0000 0000 0000 0000
00000300: 0000 0000 0000 0000 0000 0000 0000 0000
00000310: 0000 0000 0000 0000 0000 0000 0000 0000
00000320: 0000 0000 0000 0000 0000 0000 0000 0000
00000330: 0000 0000 0000 0000 0000 0000 0000 0000
00000340: 0000 0000 0000 0000 0000 0000 0000 0000
00000350: 0000 0000 0000 0000 0000 0000 0000 0000
00000360: 0000 0000 0000 0000 0000 0000 0000 0000
00000370: 0000 0000 0000 0000 0000 0000 0000 0000
00000380: 0000 0000 0000 0000 0000 0000 0000 0000
00000390: 0000 0000 0000 0000 0000 0000 0000 0000
000003a0: 0000 0000 0000 0000 0000 0000 0000 0000
000003b0: 0000 0000 0000 0000 0000 0000 0000 0000
000003c0: 0000 0000 0000 0000 0000 0000 0000 0000
000003d0: 0000 0000 0000 0000 0000 0000 0000 0000
000003e0: 0000 0000 0000 0000 0000 0000 0000 0000
000003f0: 0000 0000 0000 0000 0000 0000 0000 0000
0.0 0.0 0.0 0.0 0.0 0.0 0.0 0.0
0.0 0.0 0.0 0.0 0.0 0.0 0.0 0.0
0.0 0.0 0.0 0.0 0.0 0.0 0.0 0.0
0.0 0.0 0.0 0.0 0.0 0.0 0.0 0.0
0.0 0.0 0.0 0.0 0.0 0.0 0.0 0.0
0.0 0.0 0.0 0.0 0.0 0.0 0.0 0.0
0.0 0.0 0.0 0.0 0.0 0.0 0.0 0.0
0.0 0.0 0.0 0.0 0.0 0.0 0.0 0.0
0.0 0.0 0.0 0.0 0.0 0.0 0.0 0.0
0.0 0.0 0.0 0.0 0.0 0.0 0.0 0.0
0.0 0.0 0.0 0.0 0.0 0.0 0.0 0.0
0.0 0.0 0.0 0.0 0.0 0.0 0.0 0.0
0.0 0.0 0.0 0.0 0.0 0.0 0.0 0.0
0.0 0.0 0.0 0.0 0.0 0.0 0.0 0.0
0.0 0.0 0.0 0.0 0.0 0.0 0.0 0.0
0.0 0.0 0.0 0.0 0.0 0.0 0.0 0.0
0.0 0.0 0.0 0.0 0.0 0.0 0.0 0.0
0.0 0.0 0.0 0.0 0.0 0.0 0.0 0.0
0.0 0.0 0.0 0.0 0.0 0.0 0.0 0.0
0.0 0.0 0.0 0.0 0.0 0.0 0.0 0.0
0.0 0.0 0.0 0.0 0.0 0.0 0.0 0.0
0.0 0.0 0.0 0.0 0.0 0.0 0.0 0.0
0.0 0.0 0.0 0.0 0.0 0.0 0.0 0.0
0.0 0.0 0.0 0.0 0.0 0.0 0.0 0.0
0.0 0.0 0.0 0.0 0.0 0.0 0.0 0.0
0.0 0.0 0.0 0.0 0.0 0.0 0.0 0.0
0.0 0.0 0.0 0.0 0.0 0.0 0.0 0.0
0.0 0.0 0.0 0.0 0.0 0.0 0.0 0.0
0.0 0.0 0.0 0.0 0.0 0.0 0.0 0.0
0.0 0.0 0.0 0.0 0.0 0.0 0.0 0.0
0.0 0.0 0.0 0.0 0.0 0.0 0.0 0.0
0.0 0.0 0.0 0.0 0.0 0.0 0.0 0.0
