verification/models/best_hybrid_model_0.pt (torch, 926017 bytes, 34 tensors)

q_weights f4 [8, 5, 3]
00000000: 4bf9 ebbb 1e16 dfbc aefa 65bc f0b3 c9bb
00000010: 17d7 9cbc 4910 f93b b35c 5bbc 3c79 343d
00000020: a5db 1b3c 7e2f ad3b 66a8 a33b 0e32 8c38
00000030: 12ce 5e3c e706 be3c 02e5 2dbc f412 bc3c
00000040: aff0 00bd 39c0 9ebc 2f05 053c ae19 75bc
00000050: 1f31 823c 5079 c73b 17d8 083c a189 133a
00000060: c283 0dbc 6e1b 6f3c c18f aebb a15a 6eba
00000070: 2d42 0bbb 1d86 0abd ab6a c83b 278b dc3c
00000080: 743c 2e3d b882 7abb db96 ea3b b495 6a3b
00000090: bbea 923b b755 88bc 6b66 50bc e586 c23b
000000a0: 58c4 55bb 543d 7c3c 2abd 08bc 3d08 97bb
000000b0: 281e 0f3d f34d 1bba 606f bf3b 4132 d6ba
000000c0: a78b 3b3d 8635 04bd d9aa e23b e308 f63c
000000d0: ac49 9e3c 30e1 d8bc ac06 763c 8187 c93b
000000e0: 9e83 1cbd 1d88 8ebc f2d5 cc3b 0189 f5ba
000000f0: 3240 a23c 9ba9 a93b ae87 e1ba e1da 5c3b
00000100: 2473 29bc 9059 1cbd 9254 1b3c 9834 243d
00000110: f839 38bc 9bf3 97bc d4c9 85bc 608e 063d
00000120: a937 f0bc 792c 963c 84b6 9a3c 4156 e7bc
00000130: e462 90bc d82e 743c dce8 d4bb bc06 713c
00000140: 6d0e c5bc b880 cf3b 5247 b73b 154d 6dbb
00000150: 0430 d9bc e442 c63b 2673 063b b043 29bb
00000160: c31c 0cbc 003e 753c e18b ef3c c67f 043d
00000170: 5379 a7bb 5b97 023d 1303 7c3c 8f64 05bc
00000180: b077 983b 8e35 e73c e58a 59bc 7e19 2b3c
00000190: 9c62 283c a8b0 05bd dc71 413c 1e07 363c
000001a0: 456d a5bb a5b0 ed3c 8983 40bc e550 343b
000001b0: db5b 96ba 5d76 cabb 2f2e 9f3c 634e 163d
000001c0: 7d01 90b9 d2d6 a6bc fe79 25bd 8ffe d53c
000001d0: abd1 493c d398 04bc 2d58 11bd 4e8e d039
-0.007201349 -0.027232226 -0.0140368175 -0.0061554834 -0.019145532 0.0076008183 -0.0133888 0.04406093
0.009512817 0.0052852025 0.00499444 6.6850436e-05 0.013598936 0.02319665 -0.010613682 0.022958256
-0.031479534 -0.019378768 0.008118912 -0.014959736 0.015892563 0.0060874596 0.008352301 0.0005628113
-0.008637371 0.014593942 -0.0053271954 -0.0009092484 -0.002124916 -0.033819307 0.0061162314 0.026921822
0.04253812 -0.0038224887 0.0071590967 0.0035794796 0.0044835485 -0.016642435 -0.012719731 0.005936491
-0.003261825 0.015395481 -0.0083458815 -0.0046091364 0.03494087 -0.0005924396 0.0058421344 -0.0016341881
0.04578748 -0.032277606 0.0069173393 0.030033534 0.019322239 -0.026474565 0.015016239 0.0061501865
-0.038211457 -0.017398888 0.00625109 -0.0018732847 0.019806001 0.0051776893 -0.0017206573 0.0033699798
-0.010342393 -0.03817135 0.009480612 0.04008922 -0.01124429 -0.018548777 -0.01633159 0.032850623
-0.029323416 0.018331753 0.018885858 -0.028239371 -0.01762528 0.014903747 -0.0064974856 0.014711078
-0.02405473 0.006332483 0.005593219 -0.0036209275 -0.026512153 0.0060504545 0.002051541 -0.0025827698
-0.008551779 0.014968395 0.029241504 0.032348417 -0.0051108985 0.031882625 0.015381592 -0.008141651
0.0046529397 0.028223779 -0.013277744 0.0104430895 0.010277417 -0.032639176 0.011806931 0.011110095
-0.0050484263 0.029014895 -0.01175011 0.0027514037 -0.0011471467 -0.006178661 0.019431202 0.03669585
-0.0002746693 -0.020366106 -0.040399544 0.02612236 0.012318055 -0.008093077 -0.03548448 0.00039778877

pre_net1.0.weight f4 [512, 5]
00000000: f82d aebe 5669 60be 37db db3e 273f 5d3e
00000010: fd83 dc3e 8c44 5c3e 8c42 873d 77f9 d53e
00000020: 7e84 98be 6b5b b9be ec4c 83be e912 a93e
00000030: 26af fabd a3ca 86bd 497d bc3d c5a4 36be
00000040: f231 983d 28a5 e2bd e912 92be e7ff 02be
00000050: 1f56 ba3e a047 213e 604f a13e 7226 b73e
00000060: 2807 ac3e 20af 2fbe 3c8d 09be 8028 94be
00000070: 9002 cebe 16bb 00be 4ec6 85bd 3d40 b83e
00000080: 9d68 793e b109 b3bd b2ec 613e 2bf2 8e3e
00000090: c78a 663b ab91 eebd d3b6 463e 48d6 53be
000000a0: 6929 9ebe e477 8abe b650 d7be eb33 9cbe
000000b0: 0936 9d3d 9856 b5be 00d1 973e 1ce3 aa3e
000000c0: 7e88 2c3e eaf2 b8be 4a10 06bc 6ae1 e03d
000000d0: 953a 6bbe 5a1a 4b3e 0870 dd3e f3f9 303e
000000e0: 6d2f 2bbe 6fc9 86be e240 bcbe 42f8 45be
000000f0: 816b 67bd 6263 033d 2d0f 09be 0c7f 9fbc
00000100: ae53 80be 72b5 84bd a461 bbbe 3ef7 eebd
00000110: d1de a73e 288c adbd c4b6 ac3e d9a4 f13d
00000120: da63 0f3e aa19 953e adc3 89be edf9 c13c
00000130: ac66 3bbd 5a5b 92be aa32 96be 613e 613e
00000140: 72c4 1c3d 2ab6 c0be 5ab3 c2bd a153 113e
00000150: 724b 0d3e e23c 953e 87ea 77be 0526 8e3d
00000160: bbd7 d63e 9c22 703e 92bf 633e 1bcd 193e
00000170: 77d1 22be c985 803d 050b de3e 713a 88be
00000180: be85 d53e f04f 46be 9036 86be 1864 a8be
00000190: 6691 9c3e 3a81 ccbd 99aa cdbd 088f babe
000001a0: 65a3 3bbe 9c89 79bd d34f 8cbe 1b17 fe3c
000001b0: a71f 8f3e ebac 2fbd f79f b5be 8e31 733d
000001c0: 8b62 673e db11 15bc 7aec fcbb 8d46 a23e
000001d0: 9dc0 503e 23c7 573e 37a0 d3be d1ad 053e
000001e0: afc7 b43e f00f 9bbe 1fc4 14be 22b7 7b3e
000001f0: 4172 8cbe 7092 b9bd 67ae b9be 2648 b43e
00000200: 1f42 943b 812d b4be a51a b83e a7c8 b33c
00000210: 06ee c83e dbbe c73e bf35 a63d f8f4 bc3c
00000220: 6db9 d3be 6719 0fbe de93 81be e7b3 80bd
00000230: e87e 88be bf5a 423e 5ffe dcbe 4825 cfbe
00000240: 26c8 d13d fbf5 813d e80f 67be 449d b4be
00000250: 2466 a43e 323e 39be 0003 0f3e e359 18bd
00000260: b02a 2cbc 85ba ccbe 73a6 0bbe b2ca 5c3e
00000270: 2e5a 0f3e 703e d33e c42e 8cbe bb05 743e
00000280: d229 233e 0763 b53e cfe3 973e e235 85be
00000290: 5f7b 8e3e a7a8 263e d42b 4f3e 8941 a03e
000002a0: 5936 9c3e 8ea8 d03e 076f acbe 022c d6be
000002b0: ef64 7e3e abe1 953e 0ad1 e3bd 118e 24bd
000002c0: 7872 c9be 4c56 fb3c e02a d23e b3ab b6be
000002d0: 6df1 b4be 3cf8 9b3c 04c9 9dbe 7ef0 c93d
000002e0: d935 d73e f99a a73e a91c 083e daf8 2bbe
000002f0: 9616 e3be a59b 9cbe 7062 25be 238b d43c
00000300: a7e1 ca3d 98df 5fbe 3662 82be f1ce a83e
00000310: bd5f 8dbd c32f 253e 0d97 0b3b a5d9 4a3e
00000320: 5767 e9bd 1da0 a7be 3d36 193e e9ac 3a3e
00000330: a50e 11be 2264 4dbd f8f7 92bc 1fe8 dcbe
00000340: 5237 58be 8423 32be 6841 b8bd 8281 01be
00000350: 149a de3e c6d2 873d 2974 7a3e 2bde 48be
00000360: 0bbe 32be 5e1b 8b3e 3762 073e 5673 b6be
00000370: 26f4 4d3e 94fd 62be 4fcc 7d3e 65ae 6a3e
00000380: 7822 a4be ec0a a93e 85a3 95be 2f05 6c3d
00000390: 675f c63e c98a a53e d894 a3be cbf1 e3be
000003a0: b000 933d eee2 96be 7dbe b9be 4da8 4cbd
000003b0: cfb7 983e 3550 b03d 7743 7fbe d458 f4bd
000003c0: 19f2 5fbb d5ca 8dbe 6e9a 8f3e a9a2 fc3d
000003d0: 362d fdbc 91d7 aebd 987e e0be 86f2 353e
000003e0: 69f9 883e a1e7 ca3e d987 f8bd cebd 39be
000003f0: 02ce ba3e 3001 383e 4bd8 16be fe26 6d3e
-0.34019446 -0.21915182 0.42940685 0.21606122 0.4306945 0.21510524 0.0660449 0.4179189
-0.29788584 -0.3620256 -0.25644624 0.3302224 -0.12240438 -0.06581619 0.09203584 -0.17836292
0.07431401 -0.11066657 -0.28530052 -0.12792931 0.3639383 0.15749979 0.3150587 0.3577152
0.3359921 -0.17156649 -0.13432783 -0.2893715 -0.4023633 -0.12571368 -0.06531964 0.3598651
0.24356313 -0.08742083 0.22062948 0.27919134 0.0035177933 -0.11648878 0.1940568 -0.2068721
-0.30890968 -0.27044594 -0.42053765 -0.3050836 0.07676322 -0.35417628 0.29651642 0.33376396
0.16848943 -0.3612283 -0.008182595 0.10980494 -0.22971566 0.19834271 0.43249536 0.17282848
-0.1671731 -0.26325557 -0.36768252 -0.19332984 -0.056499008 0.0320772 -0.13384695 -0.01946976
-0.25063843 -0.064799204 -0.3659793 -0.116682515 0.32787183 -0.08473998 0.3373319 0.1179902
0.14002934 0.29121143 -0.269071 0.023678744 -0.045752212 -0.2858532 -0.2933553 0.21996452
0.038273282 -0.3763898 -0.09506865 0.14192058 0.13798311 0.29148012 -0.24210559 0.069408454
0.41961464 0.23450702 0.22241047 0.15019648 -0.15900217 0.062755175 0.43367782 -0.26607087
0.417036 -0.19366431 -0.26213503 -0.32888865 0.3057968 -0.099855855 -0.100423045 -0.3643725
-0.18324049 -0.06092225 -0.2740465 0.031016877 0.27953836 -0.042889517 -0.35473606 0.05937343
0.22596185 -0.009098495 -0.00771862 0.3169445 0.20385976 0.21072058 -0.41333172 0.13054587
0.35308596 -0.30285597 -0.1452794 0.24581578 -0.2743092 -0.09061134 -0.3626587 0.35211295
0.004524484 -0.35190967 0.35957828 0.021946264 0.39244097 0.390128 0.0811572 0.023066029
-0.41352406 -0.13974534 -0.25308126 -0.06284314 -0.26659322 0.1897993 -0.4316282 -0.4045813
0.102432534 0.06345745 -0.22564662 -0.35276234 0.32109177 -0.18090132 0.13965988 -0.037195098
-0.010508224 -0.39986053 -0.13637714 0.21561697 0.13999245 0.41258574 -0.2737943 0.23830311
0.15933922 0.35427114 0.29665992 -0.26017672 0.278285 0.16275273 0.20231563 0.313
0.30510214 0.40753597 -0.33678457 -0.4183045 0.2484319 0.29273733 -0.111238554 -0.040174548
-0.39345145 0.030680798 0.41048336 -0.3567787 -0.35340443 0.019039266 -0.30817425 0.09860323
0.4203327 0.32735422 0.13292183 -0.16794148 -0.4435317 -0.30587497 -0.16150832 0.025945252
0.09906321 -0.21862638 -0.25465554 0.32970384 -0.06903026 0.16131501 0.002129975 0.19809587
-0.11396664 -0.32739344 0.14962097 0.18230022 -0.14165743 -0.050144322 -0.017940506 -0.43145844
-0.21114853 -0.1739636 -0.0899685 -0.1264706 0.43476927 0.06631999 0.24458374 -0.19616
-0.17455308 0.27169317 0.1322106 -0.3563487 0.20112666 -0.22167045 0.24784969 0.22918089
-0.32057548 0.33016145 -0.29226318 0.05762213 0.3874466 0.32332447 -0.31949496 -0.4452041
0.071778655 -0.2947001 -0.36278144 -0.04996519 0.29827735 0.08609048 -0.2492808 -0.11931005
-0.00341714 -0.2769381 0.28047508 0.123357125 -0.030905347 -0.0853721 -0.43846583 0.17768297
0.26752785 0.39629844 -0.12135286 -0.18138811 0.36485296 0.17969203 -0.14730947 0.23159406

pre_net1.0.bias f4 [512]
00000000: 2519 12bc 8189 b0be d784 eebd b8fa 38bd
00000010: 685a 30be d4fd 813e 0390 8f3a bf57 dbbd
00000020: 930c e43e a849 49be a7af bc3d 1678 2ebe
00000030: 1e3f 9ebe fd2b f13d ad9f b4bd e08d 4d3e
00000040: db0d c63e 499c c9be 78cd bcbe f63b 063e
00000050: e33b 223e 1146 dabe 9323 68be a0af 4cbe
00000060: b5eb 1f3e 87f6 acbe c097 8cbe cced babe
00000070: c0e3 05be 4cfc 3ebd e86c bdbe 46e0 a5bb
00000080: faab 26bd 4a49 c83e 65da eebc 8871 54bd
00000090: d995 8c3c b771 2fbd b931 d53c 1717 763d
000000a0: 5ff2 1dbd afc6 80be 9a38 e6bc 2b21 483e
000000b0: c598 aa3e 99fd 553e 0598 823e b6da 86be
000000c0: 1c2f bdbe 8e08 e7bd 3886 99be 325c 893e
000000d0: d184 4bbe 6abc bebe 1b37 463e 6430 713e
000000e0: fce6 c23e af7d c13d 15be 133d 215a 1abe
000000f0: 12f6 413e 8ef0 833e 7c03 d1be 8fb4 45bd
00000100: 6256 5ebd 0d04 17be 2ef1 e0bd 5aca 4f3e
00000110: 10a4 603e 31d0 193e af92 b6be 14b4 233e
00000120: e9d1 e4be d0b3 c2be be97 4c3e 90ac a1be
00000130: 04dc 0abe 6ba0 863e 8143 9b3e 2e3d 84be
00000140: ffa1 05bd f12b 8bbc 618b 8bbe a164 d5be
00000150: 2c56 c7bd bbdb adbd 6c8e 943e c6e7 143e
00000160: d0f8 99be 45a9 4dbe 6dc9 11bd 10a6 f8bd
00000170: a49d e53c 8a18 2fbe af0d 4fbe fc06 bdbe
00000180: 6c98 9bbd bb91 5a3e bdfd 113e e724 dabe
00000190: 9949 393d ddc0 c9bd 7377 303e 38c0 193d
000001a0: 6831 8cbe 8585 273e 82ec b0bd 402f 2f3e
000001b0: 1339 abbe dd21 923c c8aa 113e d8aa c0be
000001c0: abc8 87be a355 1ebe e7f1 bfbe 1c1e bf3e
000001d0: d712 ad3e c65b 4cbe 3f59 e4bd c369 d0be
000001e0: 1756 7cbe 5e08 d33e d0b4 113e fb4d 9fbe
000001f0: c62e d03e 3fc4 6fbe 95e3 8d3d 6fdb d1be
00000200: b1b2 833e 6c87 92be c12a d0bc d89d d93b
00000210: 4735 1a3d 534a a2be 1252 8abe ab30 8c3e
00000220: 2e67 ddbc 8c41 0abe f7b0 c43e 4a46 9cbe
00000230: fe90 5d3c 0e4a b0be a3a1 7bbe 0c0d da3e
00000240: 5306 43be 16bd afbe 4b77 9c3e 315d 763c
00000250: 6922 b93d b761 893d b463 803e 3129 e13e
00000260: e20c 203e af26 a73e 95f6 a13e d493 5b3e
00000270: fa37 13be ecce 6d3e 730e d1be 69f7 c4be
00000280: ad52 afbe 4ec7 30be fa0b a4be 148c c13e
00000290: 2cdb 3dbd 304c bbbe 9350 b23d 68f3 92be
000002a0: 9e9c ac3c bbb9 babe 0b40 d7be a119 a4be
000002b0: 0916 9e3d aac4 e3be e5a6 d5be 1cec 6abe
000002c0: 8f66 e23e 8672 343e 041a 86be acdb d9bd
000002d0: 733f 563d 976d 0ebe 327c ccbe 668a 3f3d
000002e0: d818 17be b00d cd3e e41e 8cbd a415 5abe
000002f0: f79f adbe 7209 643e a061 8dbe 53c4 363d
00000300: 22f5 d93d e1ba d63d 787e 94bd 7539 c63e
00000310: 4ea7 a7be 39a1 e73d dfa1 b13e 3738 97be
00000320: 3345 c2be 0d5e 92be 2355 dcbe 48da 7bbd
00000330: 06e6 023e a9dd adbe 96c4 863e e957 59be
00000340: 4d5c cbbd 20a0 c3be b997 d4be 07fc 7abe
00000350: 7843 b1be 4fe7 4ebc 9078 eabc 4551 fe3d
00000360: e78c adbe f772 cfbe ca7d fa3d 607a e43e
00000370: 4ab2 61be 0d0c 59bc c090 d53e 3e19 d4be
00000380: 821a 72be 86ca 993e 8c02 ba3d 5c34 4abd
00000390: d836 dd3e 3c1b 9ebd 452a c73e b977 cf3e
000003a0: c2ea a0be 0ea2 9abe cf8f 92be 3516 303e
000003b0: f479 ab3e 1b87 abbe 2855 c63e 7d4d df3e
000003c0: 67d4 603e 5d0f 2a3e b10f c8be 695f a1be
000003d0: 271d 55bd 3dab dc3d a7d3 79be 553b d5be
000003e0: 2cff 3c3e a444 953d 1e49 f43c 147b 63be
000003f0: d404 94be 2617 51be 01dc a93e 06d4 5ebe
-0.008917128 -0.34479907 -0.11646431 -0.04516098 -0.17221987 0.25388968 0.0010952953 -0.107100956
0.44540843 -0.19657004 0.092131905 -0.17037997 -0.3090753 0.11775968 -0.08819518 0.20073652
0.38682446 -0.3937705 -0.3687551 0.13108811 0.15843157 -0.4263158 -0.2266982 -0.1998887
0.15617259 -0.33781835 -0.27459526 -0.3650955 -0.13075161 -0.046627328 -0.3699715 -0.005062136
-0.040691353 0.39118415 -0.029156873 -0.051866084 0.017161297 -0.042833056 0.026024686 0.060080614
-0.03856122 -0.25151584 -0.028103162 0.19543903 0.3331968 0.20897521 0.25506607 -0.26338738
-0.36950004 -0.112809286 -0.29985213 0.26828152 -0.19874884 -0.37253124 0.19356959 0.23553616
0.38066852 0.094478 0.03606995 -0.15073444 0.18941525 0.25769466 -0.4082297 -0.048267897
-0.0542816 -0.14747639 -0.109835014 0.20292035 0.21937585 0.15020825 -0.35658786 0.15986663
-0.446914 -0.3802781 0.1997976 -0.31576967 -0.13560492 0.26294264 0.3032494 -0.25827926
-0.032625195 -0.016988726 -0.27254775 -0.41678336 -0.09733233 -0.08489176 0.2901491 0.1454154
-0.3007264 -0.20084102 -0.035592485 -0.12141049 0.02802927 -0.17099205 -0.20220064 -0.3691939
-0.075974315 0.21344654 0.1425695 -0.4260628 0.045236204 -0.09851239 0.17233066 0.03753683
-0.27381444 0.16359527 -0.0863886 0.17107868 -0.33441982 0.017838413 0.14225304 -0.37630343
-0.26520285 -0.15462355 -0.37489244 0.3732766 0.33803436 -0.19956884 -0.11149835 -0.4070569
-0.24642216 0.4121732 0.1422913 -0.31114182 0.40660685 -0.23414706 0.069281735 -0.40987727
0.25722268 -0.28618944 -0.025411012 0.006641131 0.037648465 -0.3169733 -0.2701574 0.2738088
-0.027026739 -0.13501567 0.38416263 -0.30522376 0.013523338 -0.344315 -0.24573378 0.4258808
-0.19045381 -0.3432395 0.30559763 0.015036867 0.09039766 0.06708091 0.25076067 0.4397674
0.15629914 0.326467 0.3163344 0.2144311 -0.14376822 0.23223466 -0.40831336 -0.3847001
-0.34242764 -0.17263529 -0.32040387 0.37802184 -0.046351597 -0.36581564 0.087067746 -0.2870133
0.021070775 -0.36469826 -0.42041048 -0.32050803 0.077190466 -0.4448598 -0.41728893 -0.22941631
0.4421887 0.17621812 -0.26191723 -0.10637602 0.052306604 -0.13908993 -0.39938504 0.046762846
-0.14755571 0.40049505 -0.068418294 -0.21297318 -0.33911106 0.22269228 -0.27613544 0.044620823
0.106424585 0.10484863 -0.072506845 0.3871571 -0.3274483 0.11310048 0.3469381 -0.29535076
-0.3794342 -0.2858738 -0.43033704 -0.061487466 0.1278306 -0.33958176 0.26321858 -0.21224941
-0.09929714 -0.38208103 -0.41522005 -0.24510203 -0.34621787 -0.01262839 -0.028621942 0.12417845
-0.33896562 -0.405174 0.122310236 0.44624615 -0.22040668 -0.013247502 0.41711998 -0.41425508
-0.23642924 0.30037326 0.09082517 -0.04936634 0.43205905 -0.07720038 0.38899437 0.4052103
-0.31429106 -0.30201763 -0.28625342 0.17195971 0.3349148 -0.33501515 0.38736844 0.43613806
0.21956025 0.16607423 -0.39074472 -0.31518105 -0.052029755 0.107748486 -0.24397145 -0.4164683
0.18456715 0.07288483 0.029820021 -0.2221492 -0.28909934 -0.20418987 0.33175662 -0.21760568

pre_net1.1.weight f4 [512]
00000000: 0000 803f 0000 803f 0000 803f 0000 803f
00000010: 0000 803f 0000 803f 0000 803f 0000 803f
00000020: 0000 803f 0000 803f 0000 803f 0000 803f
00000030: 0000 803f 0000 803f 0000 803f 0000 803f
00000040: 0000 803f 0000 803f 0000 803f 0000 803f
00000050: 0000 803f 0000 803f 0000 803f 0000 803f
00000060: 0000 803f 0000 803f 0000 803f 0000 803f
00000070: 0000 803f 0000 803f 0000 803f 0000 803f
00000080: 0000 803f 0000 803f 0000 803f 0000 803f
00000090: 0000 803f 0000 803f 0000 803f 0000 803f
000000a0: 0000 803f 0000 803f 0000 803f 0000 803f
000000b0: 0000 803f 0000 803f 0000 803f 0000 803f
000000c0: 0000 803f 0000 803f 0000 803f 0000 803f
000000d0: 0000 803f 0000 803f 0000 803f 0000 803f
000000e0: 0000 803f 0000 803f 0000 803f 0000 803f
000000f0: 0000 803f 0000 803f 0000 803f 0000 803f
00000100: 0000 803f 0000 803f 0000 803f 0000 803f
00000110: 0000 803f 0000 803f 0000 803f 0000 803f
00000120: 0000 803f 0000 803f 0000 803f 0000 803f
00000130: 0000 803f 0000 803f 0000 803f 0000 803f
00000140: 0000 803f 0000 803f 0000 803f 0000 803f
00000150: 0000 803f 0000 803f 0000 803f 0000 803f
00000160: 0000 803f 0000 803f 0000 803f 0000 803f
00000170: 0000 803f 0000 803f 0000 803f 0000 803f
00000180: 0000 803f 0000 803f 0000 803f 0000 803f
00000190: 0000 803f 0000 803f 0000 803f 0000 803f
000001a0: 0000 803f 0000 803f 0000 803f 0000 803f
000001b0: 0000 803f 0000 803f 0000 803f 0000 803f
000001c0: 0000 803f 0000 803f 0000 803f 0000 803f
000001d0: 0000 803f 0000 803f 0000 803f 0000 803f
000001e0: 0000 803f 0000 803f 0000 803f 0000 803f
000001f0: 0000 803f 0000 803f 0000 803f 0000 803f
00000200: 0000 803f 0000 803f 0000 803f 0000 803f
00000210: 0000 803f 0000 803f 0000 803f 0000 803f
00000220: 0000 803f 0000 803f 0000 803f 0000 803f
00000230: 0000 803f 0000 803f 0000 803f 0000 803f
00000240: 0000 803f 0000 803f 0000 803f 0000 803f
00000250: 0000 803f 0000 803f 0000 803f 0000 803f
00000260: 0000 803f 0000 803f 0000 803f 0000 803f
00000270: 0000 803f 0000 803f 0000 803f 0000 803f
00000280: 0000 803f 0000 803f 0000 803f 0000 803f
00000290: 0000 803f 0000 803f 0000 803f 0000 803f
000002a0: 0000 803f 0000 803f 0000 803f 0000 803f
000002b0: 0000 803f 0000 803f 0000 803f 0000 803f
000002c0: 0000 803f 0000 803f 0000 803f 0000 803f
000002d0: 0000 803f 0000 803f 0000 803f 0000 803f
000002e0: 0000 803f 0000 803f 0000 803f 0000 803f
000002f0: 0000 803f 0000 803f 0000 803f 0000 803f
00000300: 0000 803f 0000 803f 0000 803f 0000 803f
00000310: 0000 803f 0000 803f 0000 803f 0000 803f
00000320: 0000 803f 0000 803f 0000 803f 0000 803f
00000330: 0000 803f 0000 803f 0000 803f 0000 803f
00000340: 0000 803f 0000 803f 0000 803f 0000 803f
00000350: 0000 803f 0000 803f 0000 803f 0000 803f
00000360: 0000 803f 0000 803f 0000 803f 0000 803f
00000370: 0000 803f 0000 803f 0000 803f 0000 803f
00000380: 0000 803f 0000 803f 0000 803f 0000 803f
00000390: 0000 803f 0000 803f 0000 803f 0000 803f
000003a0: 0000 803f 0000 803f 0000 803f 0000 803f
000003b0: 0000 803f 0000 803f 0000 803f 0000 803f
000003c0: 0000 803f 0000 803f 0000 803f 0000 803f
000003d0: 0000 803f 0000 803f 0000 803f 0000 803f
000003e0: 0000 803f 0000 803f 0000 803f 0000 803f
000003f0: 0000 803f 0000 803f 0000 803f 0000 803f
1.0 1.0 1.0 1.0 1.0 1.0 1.0 1.0
1.0 1.0 1.0 1.0 1.0 1.0 1.0 1.0
1.0 1.0 1.0 1.0 1.0 1.0 1.0 1.0
1.0 1.0 1.0 1.0 1.0 1.0 1.0 1.0
1.0 1.0 1.0 1.0 1.0 1.0 1.0 1.0
1.0 1.0 1.0 1.0 1.0 1.0 1.0 1.0
1.0 1.0 1.0 1.0 1.0 1.0 1.0 1.0
1.0 1.0 1.0 1.0 1.0 1.0 1.0 1.0
1.0 1.0 1.0 1.0 1.0 1.0 1.0 1.0
1.0 1.0 1.0 1.0 1.0 1.0 1.0 1.0
1.0 1.0 1.0 1.0 1.0 1.0 1.0 1.0
1.0 1.0 1.0 1.0 1.0 1.0 1.0 1.0
1.0 1.0 1.0 1.0 1.0 1.0 1.0 1.0
1.0 1.0 1.0 1.0 1.0 1.0 1.0 1.0
1.0 1.0 1.0 1.0 1.0 1.0 1.0 1.0
1.0 1.0 1.0 1.0 1.0 1.0 1.0 1.0
1.0 1.0 1.0 1.0 1.0 1.0 1.0 1.0
1.0 1.0 1.0 1.0 1.0 1.0 1.0 1.0
1.0 1.0 1.0 1.0 1.0 1.0 1.0 1.0
1.0 1.0 1.0 1.0 1.0 1.0 1.0 1.0
1.0 1.0 1.0 1.0 1.0 1.0 1.0 1.0
1.0 1.0 1.0 1.0 1.0 1.0 1.0 1.0
1.0 1.0 1.0 1.0 1.0 1.0 1.0 1.0
1.0 1.0 1.0 1.0 1.0 1.0 1.0 1.0
1.0 1.0 1.0 1.0 1.0 1.0 1.0 1.0
1.0 1.0 1.0 1.0 1.0 1.0 1.0 1.0
1.0 1.0 1.0 1.0 1.0 1.0 1.0 1.0
1.0 1.0 1.0 1.0 1.0 1.0 1.0 1.0
1.0 1.0 1.0 1.0 1.0 1.0 1.0 1.0
1.0 1.0 1.0 1.0 1.0 1.0 1.0 1.0
1.0 1.0 1.0 1.0 1.0 1.0 1.0 1.0
1.0 1.0 1.0 1.0 1.0 1.0 1.0 1.0

pre_net1.1.bias f4 [512]
00000000: 0000 0000 0000 0000 0000 0000 0000 0000
00000010: 0000 0000 0000 0000 0000 0000 0000 0000
00000020: 0000 0000 0000 0000 0000 0000 0000 0000
00000030: 0000 0000 0000 0000 0000 0000 0000 0000
00000040: 0000 0000 0000 0000 0000 0000 0000 0000
00000050: 0000 0000 0000 0000 0000 0000 0000 0000
00000060: 0000 0000 0000 0000 0000 0000 0000 0000
00000070: 0000 0000 0000 0000 0000 0000 0000 0000
00000080: 0000 0000 0000 0000 0000 0000 0000 0000
00000090: 0000 0000 0000 0000 0000 0000 0000 0000
000000a0: 0000 0000 0000 0000 0000 0000 0000 0000
000000b0: 0000 0000 0000 0000 0000 0000 0000 0000
000000c0: 0000 0000 0000 0000 0000 0000 0000 0000
000000d0: 0000 0000 0000 0000 0000 0000 0000 0000
000000e0: 0000 0000 0000 0000 0000 0000 0000 0000
000000f0: 0000 0000 0000 0000 0000 0000 0000 0000
00000100: 0000 0000 0000 0000 0000 0000 0000 0000
00000110: 0000 0000 0000 0000 0000 0000 0000 0000
00000120: 0000 0000 0000 0000 0000 0000 0000 0000
00000130: 0000 0000 0000 0000 0000 0000 0000 0000
00000140: 0000 0000 0000 0000 0000 0000 0000 0000
00000150: 0000 0000 0000 0000 0000 0000 0000 0000
00000160: 0000 0000 0000 0000 0000 0000 0000 0000
00000170: 0000 0000 0000 0000 0000 0000 0000 0000
00000180: 0000 0000 0000 0000 0000 0000 0000 0000
00000190: 0000 0000 0000 0000 0000 0000 0000 0000
000001a0: 0000 0000 0000 0000 0000 0000 0000 0000
000001b0: 0000 0000 0000 0000 0000 0000 0000 0000
000001c0: 0000 0000 0000 0000 0000 0000 0000 0000
000001d0: 0000 0000 0000 0000 0000 0000 0000 0000
000001e0: 0000 0000 0000 0000 0000 0000 0000 0000
000001f0: 0000 0000 0000 0000 0000 0000 0000 0000
00000200: 0000 0000 0000 0000 0000 0000 0000 0000
00000210: 0000 0000 0000 0000 0000 0000 0000 0000
00000220: 0000 0000 0000 0000 0000 0000 0000 0000
00000230: 0000 0000 0000 0000 0000 0000 0000 0000
00000240: 0000 0000 0000 0000 0000 0000 0000 0000
00000250: 0000 0000 0000 0000 0000 0000 0000 0000
00000260: 0000 0000 0000 0000 0000 0000 0000 0000
00000270: 0000 0000 0000 0000 0000 0000 0000 0000
00000280: 0000 0000 0000 0000 0000 0000 0000 0000
00000290: 0000 0000 0000 0000 0000 0000 0000 0000
000002a0: 0000 0000 0000 0000 0000 0000 0000 0000
000002b0: 0000 0000 0000 0000 0000 0000 0000 0000
000002c0: 0000 0000 0000 0000 0000 0000 0000 0000
000002d0: 0000 0000 0000 0000 0000 0000 0000 0000
000002e0: 0000 0000 0000 0000 0000 0000 0000 0000
000002f0: 0000 0000 0000 0000 0000 0000 0000 0000
00000300: 0000 0000 0000 0000 0000 0000 0000 0000
00000310: 0000 0000 0000 0000 0000 0000 0000 0000
00000320: 0000 0000 0000 0000 0000 0000 0000 0000
00000330: 0000 0000 0000 0000 0000 0000 0000 0000
00000340: 0000 0000 0000 0000 0000 0000 0000 0000
00000350: 0000 0000 0000 0000 0000 0000 0000 0000
00000360: 0000 0000 0000 0000 0000 0000 0000 0000
00000370: 0000 0000 0000 0000 0000 0000 0000 0000
00000380: 0000 0000 0000 0000 0000 0000 0000 0000
00000390: 0000 0000 0000 0000 0000 0000 0000 0000
000003a0: 0000 0000 0000 0000 0000 0000 0000 0000
000003b0: 0000 0000 0000 0000 0000 0000 0000 0000
000003c0: 0000 0000 0000 0000 0000 0000 0000 0000
000003d0: 0000 0000 0000 0000 0000 0000 0000 0000
000003e0: 0000 0000 0000 0000 0000 0000 0000 0000
000003f0: 0000 0000 0000 0000 0000 0000 0000 0000
0.0 0.0 0.0 0.0 0.0 0.0 0.0 0.0
0.0 0.0 0.0 0.0 0.0 0.0 0.0 0.0
0.0 0.0 0.0 0.0 0.0 0.0 0.0 0.0
0.0 0.0 0.0 0.0 0.0 0.0 0.0 0.0
0.0 0.0 0.0 0.0 0.0 0.0 0.0 0.0
0.0 0.0 0.0 0.0 0.0 0.0 0.0 0.0
0.0 0.0 0.0 0.0 0.0 0.0 0.0 0.0
0.0 0.0 0.0 0.0 0.0 0.0 0.0 0.0
0.0 0.0 0.0 0.0 0.0 0.0 0.0 0.0
0.0 0.0 0.0 0.0 0.0 0.0 0.0 0.0
0.0 0.0 0.0 0.0 0.0 0.0 0.0 0.0
0.0 0.0 0.0 0.0 0.0 0.0 0.0 0.0
0.0 0.0 0.0 0.0 0.0 0.0 0.0 0.0
0.0 0.0 0.0 0.0 0.0 0.0 0.0 0.0
0.0 0.0 0.0 0.0 0.0 0.0 0.0 0.0
0.0 0.0 0.0 0.0 0.0 0.0 0.0 0.0
0.0 0.0 0.0 0.0 0.0 0.0 0.0 0.0
0.0 0.0 0.0 0.0 0.0 0.0 0.0 0.0
0.0 0.0 0.0 0.0 0.0 0.0 0.0 0.0
0.0 0.0 0.0 0.0 0.0 0.0 0.0 0.0
0.0 0.0 0.0 0.0 0.0 0.0 0.0 0.0
0.0 0.0 0.0 0.0 0.0 0.0 0.0 0.0
0.0 0.0 0.0 0.0 0.0 0.0 0.0 0.0
0.0 0.0 0.0 0.0 0.0 0.0 0.0 0.0
0.0 0.0 0.0 0.0 0.0 0.0 0.0 0.0
0.0 0.0 0.0 0.0 0.0 0.0 0.0 0.0
0.0 0.0 0.0 0.0 0.0 0.0 0.0 0.0
0.0 0.0 0.0 0.0 0.0 0.0 0.0 0.0
0.0 0.0 0.0 0.0 0.0 0.0 0.0 0.0
0.0 0.0 0.0 0.0 0.0 0.0 0.0 0.0
0.0 0.0 0.0 0.0 0.0 0.0 0.0 0.0
0.0 0.0 0.0 0.0 0.0 0.0 0.0 0.0

pre_net2.0.weight f4 [256, 512]
00000000: 503a 0fba f2a0 b93c 3033 b53c 295a 8ebc
00000010: cda0 b3bc a1db 023d bfb9 053d ed0e cc3b
00000020: dd3f 04bd 87c2 853c fbe4 103d 4d95 ac3c
00000030: 05ef 0c3c 62ff 853c cba3 b5bc 91fe ecbc
00000040: a6f6 0d3d f196 303d 65b7 ecbc 1a34 2b3d
00000050: 100e 663c 3452 9b3a fd54 163d 1628 13bb
00000060: 8a9b e8bc 1e2e bfbc 0aab 2ebd 5a25 96bc
00000070: 7b41 f33a 2561 cfbc 34da 243d acc1 2a3c
00000080: c9d7 92bc 5b4b 993c de39 0e3d be0e 32bd
00000090: 18b3 cdbc c181 a2bc 8282 f63c cad7 a43c
000000a0: a8a1 2ebd a016 023d e261 713b e7c1 35bc
000000b0: e5ef 1b3d 0ee6 563b bc55 8b3b ac4b e5bb
000000c0: 5819 0fbb afeb 2fbd 62fb 27bc 3ce6 99bc
000000d0: 8666 71bc ab3b 133d 3a02 923c 8898 a93c
000000e0: 7739 27bd d04c 413c a896 96bc ca1b 073d
000000f0: 8cfd ef3b c92b 1ebc 98c6 cbbc 8ea7 6d3c
00000100: c7e3 0bbb 55e8 2a3d fee4 013d 7545 2bbc
00000110: e11b b2bb d823 13bc 0658 093d afb2 f93c
00000120: 20b6 283c 54f9 ea3c ae5c ef3c da1f 0cbd
00000130: 52b6 0bbd cd1e 05bd 7d5f be3c 700b 613b
00000140: a07b c3bb 5b6b 31bd bd64 08bd b787 f1bc
00000150: 1642 edbb 1f26 5a3c ae60 debc a47c 763c
00000160: 16d4 c23b 1aa5 d4bc dbc7 0ebd 24a9 c8bc
00000170: 749e 68bc 6b5a 83bc 864b ba3b 0049 11bd
00000180: 9f69 08bd 3457 063d e13c ce3b 4ff9 afbc
00000190: 1cc0 f0bc 97ac 97bc cf7c 0b3d 3a31 263d
000001a0: a545 dabc be0c 09bd 0f19 28bd 61be ca3c
000001b0: 2f85 23bd 7590 663c 7a05 073d 9abe 8a3c
000001c0: 874b 343d 5c87 2c3d 81aa 2f3d ae07 2dbd
000001d0: 0206 98bc 70fc 5fbb 2ccf 153b bdd4 443c
000001e0: b043 1f3d a540 b33c 8d97 063d 4648 9b3c
000001f0: e889 1abd 1388 b53b d6ea f6bb bb2a 2abd
00000200: 2a67 ed3b 57b5 0e3d 8dc6 12bd 45eb 97bc
00000210: 2f23 cf3c d381 0abc dc0d cdbc b917 153d
00000220: 6c0d 2bbd 52eb 893c f548 2d3d 3b72 e3bc
00000230: f5a2 8fbc f2b2 67bc b167 d2bc 8fe1 2b3d
00000240: 9669 113d 5d20 76bc 2ba0 be3c d7f3 46ba
00000250: fe86 a43a 09cd 17bd a567 2fbc 5e00 043b
00000260: 741e 2c3d 62d2 ab3c 401e 4e3c ebeb 02bd
00000270: 7f90 f1bc 434e dc3b 2860 bbbc f5ae 54bb
00000280: 2146 0cbc 6c67 abbc 6ee8 f83c cc76 9fbc
00000290: 2fd4 ffbc e425 0c3c e336 133d acc2 16bd
000002a0: fbff 27bc cf5b 3abc 1584 b8bc 436d a6bc
000002b0: e0ba 1ebd 8db0 f93b 61d2 8c3b f95a 8fbc
000002c0: 2955 a03b 0468 ed3c cc37 933c 8b8d 33bc
000002d0: bafa 913c 079f cb3c bc2e 8dbc 7370 b33c
000002e0: 877f c7bc 1c0f f53c 4231 1f3c f30d e03c
000002f0: 441e 01bd 5b5d 04bd 53a1 b03c 99ce 003c
00000300: 4d57 293d 7a82 093d 7583 4a3c e920 14bd
00000310: 0a0c 133d e610 8c3b 7feb c4bc 1987 a5bc
00000320: 5b63 96bb 2556 6e3c ef51 83bb b47c 81bc
00000330: c06c 1bbd bac1 993c ed11 9b3c 9b04 20bd
00000340: ce82 a83c aece 27bc e68f 1b3c ece5 fabc
00000350: a0ec 96bc 8a52 123b 0e5c 03bb 8b37 e13c
00000360: 9c37 ce3c be06 bb3c fb95 b1bc af74 153c
00000370: aa52 243b dda0 96bc c3c2 21bd f4d2 9d3c
00000380: baf4 ce3b 919b 02bc e229 0d3d db19 a8bc
00000390: 4f36 88bc db4f 873c 88f6 253d cb43 ffbc
000003a0: 0859 2b3d 5168 3ebc be6e 293d 22e4 d6bc
000003b0: 7474 02bd af72 30bd a2ff 11bc 706e 96bc
000003c0: 425d 923c 7d3b bdbb 32f4 25bd abaf ffbc
000003d0: a395 e0bc 4d5a fabb 4ddf 33bc 1561 1a3c
000003e0: bdb7 e13c 0967 eabc 7253 273d 216f 023d
000003f0: 8ec2 3fbc 3e75 babb e724 ca39 4c88 13bd
-0.00054637063 0.022659753 0.022119135 -0.017376976 -0.021927262 0.031947736 0.032647844 0.006227365
-0.032287467 0.01632811 0.035374623 0.021067286 0.008601909 0.016357128 -0.02217283 -0.02892998
0.03465905 0.0431127 -0.028896043 0.041797735 0.014041439 0.001185006 0.036702145 -0.0022454313
-0.02839448 -0.02333742 -0.042643584 -0.018328357 0.0018558943 -0.025314877 0.040247157 0.010422152
-0.01792516 0.01871269 0.034723155 -0.04347109 -0.025109813 -0.019837262 0.030091528 0.020122427
-0.042634636 0.031759858 0.0036832024 -0.011093593 0.038070578 0.0032790932 0.0042521637 -0.006997546
-0.0021835174 -0.042949375 -0.010252805 -0.018786542 -0.014733916 0.035945576 0.017823327 0.020702615
-0.040826287 0.011798099 -0.018382385 0.032985486 0.0073239263 -0.009653994 -0.02487497 0.01450528
-0.0021345483 0.041725475 0.031712525 -0.010453572 -0.0054354523 -0.008980714 0.03353121 0.03048071
0.010297328 0.028683342 0.029218998 -0.034210064 -0.03410942 -0.032500077 0.023238892 0.0034339093
-0.005965665 -0.043315273 -0.033299197 -0.02948366 -0.007240544 0.013314753 -0.02714571 0.015044365
0.005945693 -0.025957633 -0.034858566 -0.024494715 -0.014197934 -0.016034326 0.0056852726 -0.03547001
-0.033303853 0.032798007 0.0062938784 -0.021481184 -0.02938848 -0.018514914 0.034054574 0.04057429
-0.026644537 -0.033459418 -0.041039523 0.024748983 -0.039921936 0.014072527 0.032964207 0.016936589
0.04401734 0.042121276 0.042887215 -0.042243652 -0.018557552 -0.0034177564 0.002285908 0.012013611
0.03888291 0.02188141 0.032859374 0.018955361 -0.037729174 0.005539903 -0.007535319 -0.041544657
0.007244964 0.034840908 -0.035833884 -0.018544802 0.025285332 -0.008453804 -0.025031023 0.036399577
-0.041760847 0.016835842 0.042305905 -0.02776443 -0.017533759 -0.014141785 -0.02568421 0.041963156
0.035501085 -0.015022364 0.023269733 -0.00075894356 0.0012552438 -0.03706077 -0.010705863 0.002014182
0.04202123 0.020974342 0.012580454 -0.03196327 -0.029487846 0.0067231967 -0.022873 -0.0032452915
-0.008561642 -0.020923339 0.030384269 -0.019465826 -0.031229107 0.008553956 0.035941016 -0.036806747
-0.010253902 -0.011374428 -0.02252392 -0.020315772 -0.038752437 0.0076199234 0.00429754 -0.017499434
0.0048929644 0.028980263 0.017970942 -0.010959039 0.017819751 0.024856104 -0.017234199 0.021904206
-0.024352802 0.029914431 0.009716334 0.027350402 -0.031523004 -0.032315593 0.0215613 0.007861757
0.041343022 0.033571698 0.012360443 -0.036164198 0.035900153 0.0042744754 -0.024038075 -0.020206021
-0.004589481 0.014546906 -0.00400757 -0.015806533 -0.03794551 0.018769134 0.018929446 -0.039066892
0.020570185 -0.010242147 0.009494757 -0.030627213 -0.018423378 0.002232703 -0.0020043883 0.027492305
0.025173001 0.022830363 -0.021677962 0.009122058 0.0025073686 -0.018387252 -0.03949238 0.01926563
0.006315795 -0.00797166 0.03446377 -0.020520141 -0.016627459 0.01651757 0.040518314 -0.031160256
0.041832954 -0.011621551 0.041365378 -0.02623183 -0.03184934 -0.04307812 -0.008911045 -0.018363208
0.017866734 -0.005774914 -0.040516086 -0.031211695 -0.027415102 -0.007640159 -0.010978532 0.00942256
0.027553434 -0.028613584 0.040851064 0.031844262 -0.0117041 -0.005690246 0.00038555937 -0.036018655

pre_net2.0.bias f4 [256]
00000000: 99e5 ddbb 02a5 163d ff46 ffbc e64d 00bd
00000010: f10c 973c 44c9 73bc 119a 28bd 8244 c9bc
00000020: 3135 2cbb ec32 eebc 8b76 04bc 6f6a bdbc
00000030: 31e9 a2bc 0df8 f4bc e364 fa3c dddb 28bd
00000040: 85a7 123d bd1e f4bc 98fc 563b c62b 07bb
00000050: 108d b23c 0455 d93c 98ea 6e3c e52e de3c
00000060: 1b8a 0bbd 8253 863c ab0c 9fbb d822 31bc
00000070: f121 82bc da03 cfbc e3e1 a63b 7b90 fdbc
00000080: 1cab fc3c 3f48 e53c af2e d4bc 1c5e 5bbc
00000090: f45b 663c ceee 8fbc ff67 a33c 0215 e0bc
000000a0: 7e1b e53c ad1f df3c 86df 8fbc 393e 9cbc
000000b0: 7b48 243d 8d7f b43c 7344 80bc 46f6 973b
000000c0: 6ec6 203c e316 f13b d883 8fbc 65d5 efbc
000000d0: 69a2 033c 90a5 1e3c 074a 5a3b 4c21 043d
000000e0: a9a5 b5bc 0fb0 313d 8d20 63bc 3e33 18bd
000000f0: 69cb 903c 4917 a7bc 0937 14bd 8832 cbbc
00000100: 5367 08bd 8af1 b83c 8e55 e03c 8c9b 25bd
00000110: b4af 2bbd 6b0e 1e3c 8ada c83c 26a0 3bbc
00000120: 6c74 34bd 2a08 8dba 8291 8f3b 0115 b7bc
00000130: c753 be3c d74a d5bc 6df9 f5bc e43f d33c
00000140: b31e 923c 97ba 993c 0c16 c3bc 99ae 30bd
00000150: 6f70 343d b0af a33c 372c 703c f09b 0fbc
00000160: f06a 2bbd 83ff a83c 5ebb 0fbd 4635 d1bc
00000170: 86be 1d3d 4244 a0bc 63a8 a73c c8f4 cabc
00000180: 11fa 34bd 10c5 d23b 22df 2a3d 4df9 f439
00000190: 2548 9c3c 09bb 20bd 78e7 ac3a 5181 0abc
000001a0: 74bc e83c 0598 bfbc 0858 cdbc f6b0 7f3c
000001b0: fa0c 143d b671 ecbc df59 093d f53a 45ba
000001c0: 8a8b e4bc e4bc b03c a60a 2cbd a30f 08bb
000001d0: 4de7 ee3c aa72 313d 4bf4 2b3c 3cb7 dabb
000001e0: 7c2b ecbb bc23 183d 798e 043c aae7 423c
000001f0: 6952 8dba 95e2 0f3c 1662 42bc 6ec0 333c
00000200: 315b 903c 7c65 8ebc 5f45 12bb 8fbf 2d3c
00000210: 96c5 21bc 5f16 c83c 2865 8ebc 40bd 1ebc
00000220: 4755 9d3c 653d c0bb 250e 9bb8 cd7a 1abb
00000230: f5a1 98bc 7121 af3c 62b4 32bd bcf9 20bd
00000240: 570e 9a3c e453 c83b 0cba 223d 62ae 8abc
00000250: 7cb2 66bc a05b 91bc e05c fc3c 214b 243d
00000260: b65b e2bc 5b6a d0bc 437a b73c de1f e738
00000270: 9455 043d 8607 f03c 60a9 183d 3332 943c
00000280: bfeb e73c 9f3d 303d b685 673c 0416 cb3c
00000290: 8bf7 65bc 9fe0 8a3c 69ea a53c 340b f8bb
000002a0: 1c78 20bd 7dc1 23bc b3d7 e1ba cb79 303d
000002b0: 8db0 a53c 9503 bdbc 4bd3 f43c 19a5 0a3d
000002c0: 55d1 2bbd 220f 2abd a70d 03bc 632f e5bb
000002d0: 54a3 c4bc b743 d53a ffdf 5f3c 50ac 8b3b
000002e0: 52e2 633c e975 31bd 3e52 64bc e118 07bc
000002f0: b23d fabc d8aa 0d3d 1630 f8bc a2e7 21bd
00000300: 5484 6ebc 421c 293a 0381 6abb 97b9 24bd
00000310: 88aa 89bc abf1 ae3b 242b 92bc c1be 343d
00000320: 3ccd 87bc 6c35 11bd a4b0 173d 3862 1d3d
00000330: c346 ff3c 6f28 ea3c 3765 c4bc e63f 083d
00000340: eac6 42bc 3f6b 2bbc e103 613c 4510 0e3c
00000350: 4f67 62bc 8fdd 093d c0be 093c f609 4f3c
00000360: 087a 483c 4f99 213d d7f5 8d3b 362b 933c
00000370: da69 02bd 5385 65bc 66f2 303d 5c31 e4bc
00000380: 9157 c23c ee81 23bd b5e4 a43c 09db 9abc
00000390: 7069 69bc 616e 233c 1fc0 003d fc28 b8bc
000003a0: 66d4 00bd 38a8 90bc 57f1 cb3c d532 16bc
000003b0: 7476 97bc 51a4 9bbb 2658 0a3a 740b 02bd
000003c0: d4d7 bc3a 60cb 8e3c fc59 38bb c52c 3dbc
000003d0: 4b16 e83c 4574 d3bc f464 d0bc 9503 2cbc
000003e0: f330 9d3c b3b8 dd3a ff9c d7bc 70b7 0e3d
000003f0: a2a6 31bc 4dd9 e83c 37e5 183d ae6d bfbc
-0.006771755 0.036778457 -0.031161783 -0.03132429 0.018438788 -0.014879528 -0.041162554 -0.0245688
-0.0026276822 -0.029077016 -0.0080849035 -0.02312204 -0.019886585 -0.029903436 0.030565685 -0.041225303
0.03580429 -0.029799813 0.0032804366 -0.0020625456 0.02179578 0.026529796 0.014582299 0.02712197
-0.034067255 0.016397242 -0.004853805 -0.01081153 -0.015885325 -0.025270391 0.0050928458 -0.030952683
0.03084331 0.027988551 -0.025901167 -0.013389137 0.014060009 -0.017569926 0.01994705 -0.027353767
0.02796721 0.027236784 -0.017562639 -0.019072639 0.040108185 0.022033477 -0.01565764 0.0046375124
0.009812934 0.0073574646 -0.017518923 -0.02927656 0.008034327 0.009683028 0.0033308284 0.032258317
-0.02217372 0.043380793 -0.013862741 -0.037158243 0.017675119 -0.020396845 -0.036185298 -0.024804369
-0.033301663 0.022576112 0.027384546 -0.040431544 -0.04191561 0.009646992 0.02451827 -0.011451757
-0.04405634 -0.0010759879 0.0043813596 -0.022348883 0.023233308 -0.026036663 -0.030026162 0.025787301
0.017836904 0.01876573 -0.023814224 -0.04313526 0.044052538 0.019981235 0.014658979 -0.008765206
-0.04185003 0.02062965 -0.035090797 -0.025538098 0.038511775 -0.019563798 0.020466035 -0.024774924
-0.044183794 0.006432183 0.041716702 0.0004672505 0.01907737 -0.03924087 0.0013191542 -0.008453683
0.028410174 -0.023387918 -0.02506639 0.015606156 0.036145188 -0.028862815 0.033532973 -0.0007523739
-0.027898569 0.021574445 -0.042002343 -0.0020761273 0.029163027 0.043322243 0.010495256 -0.0066746753
-0.007207332 0.037143454 0.008090609 0.011896053 -0.0010782006 0.008782049 -0.011864206 0.010971172
0.017621608 -0.017382376 -0.002231918 0.010604753 -0.009873768 0.02442473 -0.01738222 -0.009688675
0.019205702 -0.005866694 -7.3936106e-05 -0.002357173 -0.018631915 0.02137825 -0.043629058 -0.039300665
0.018805666 0.006113516 0.03972821 -0.016928855 -0.01408064 -0.017743886 0.030806005 0.04011071
-0.027631622 -0.02544134 0.022397166 0.00011020874 0.032308176 0.029300462 0.037270904 0.018090343
0.028310655 0.043027516 0.014131 0.024790771 -0.01403607 0.01695281 0.020253377 -0.007569695
-0.039177045 -0.009994862 -0.0017230421 0.0430849 0.020225788 -0.023072997 0.029885909 0.033848856
-0.04194768 -0.041518338 -0.00799886 -0.0069941743 -0.024003662 0.0016270791 0.013664245 0.0042624846
0.013908939 -0.04332534 -0.013935624 -0.008245678 -0.030546997 0.034586757 -0.030296367 -0.039527543
-0.014557917 0.0006451049 -0.0035782463 -0.040216055 -0.016804948 0.0053388677 -0.017842837 0.04412723
-0.016577356 -0.035451338 0.037033692 0.038423747 0.031161672 0.028583733 -0.023974044 0.033264063
-0.011888245 -0.010462581 0.013733835 0.008670871 -0.013818576 0.03365856 0.008407295 0.012636652
0.012236126 0.039452847 0.004332285 0.01796494 -0.03183923 -0.014008838 0.04319992 -0.027855568
0.023723396 -0.039918832 0.020128587 -0.018903272 -0.01424633 0.009975047 0.03143322 -0.02248048
-0.03145256 -0.017658338 0.024895353 -0.009167393 -0.0184891 -0.0047498127 0.00052774174 -0.031749204
0.0014407584 0.017430961 -0.0028129807 -0.011546318 0.028330943 -0.025812278 -0.025438763 -0.010498901
0.01918838 0.0016916007 -0.026319979 0.03484291 -0.010842951 0.02842393 0.03732797 -0.023367729

pre_net2.1.weight f4 [256]
00000000: 0000 803f 0000 803f 0000 803f 0000 803f
00000010: 0000 803f 0000 803f 0000 803f 0000 803f
00000020: 0000 803f 0000 803f 0000 803f 0000 803f
00000030: 0000 803f 0000 803f 0000 803f 0000 803f
00000040: 0000 803f 0000 803f 0000 803f 0000 803f
00000050: 0000 803f 0000 803f 0000 803f 0000 803f
00000060: 0000 803f 0000 803f 0000 803f 0000 803f
00000070: 0000 803f 0000 803f 0000 803f 0000 803f
00000080: 0000 803f 0000 803f 0000 803f 0000 803f
00000090: 0000 803f 0000 803f 0000 803f 0000 803f
000000a0: 0000 803f 0000 803f 0000 803f 0000 803f
000000b0: 0000 803f 0000 803f 0000 803f 0000 803f
000000c0: 0000 803f 0000 803f 0000 803f 0000 803f
000000d0: 0000 803f 0000 803f 0000 803f 0000 803f
000000e0: 0000 803f 0000 803f 0000 803f 0000 803f
000000f0: 0000 803f 0000 803f 0000 803f 0000 803f
00000100: 0000 803f 0000 803f 0000 803f 0000 803f
00000110: 0000 803f 0000 803f 0000 803f 0000 803f
00000120: 0000 803f 0000 803f 0000 803f 0000 803f
00000130: 0000 803f 0000 803f 0000 803f 0000 803f
00000140: 0000 803f 0000 803f 0000 803f 0000 803f
00000150: 0000 803f 0000 803f 0000 803f 0000 803f
00000160: 0000 803f 0000 803f 0000 803f 0000 803f
00000170: 0000 803f 0000 803f 0000 803f 0000 803f
00000180: 0000 803f 0000 803f 0000 803f 0000 803f
00000190: 0000 803f 0000 803f 0000 803f 0000 803f
000001a0: 0000 803f 0000 803f 0000 803f 0000 803f
000001b0: 0000 803f 0000 803f 0000 803f 0000 803f
000001c0: 0000 803f 0000 803f 0000 803f 0000 803f
000001d0: 0000 803f 0000 803f 0000 803f 0000 803f
000001e0: 0000 803f 0000 803f 0000 803f 0000 803f
000001f0: 0000 803f 0000 803f 0000 803f 0000 803f
00000200: 0000 803f 0000 803f 0000 803f 0000 803f
00000210: 0000 803f 0000 803f 0000 803f 0000 803f
00000220: 0000 803f 0000 803f 0000 803f 0000 803f
00000230: 0000 803f 0000 803f 0000 803f 0000 803f
00000240: 0000 803f 0000 803f 0000 803f 0000 803f
00000250: 0000 803f 0000 803f 0000 803f 0000 803f
00000260: 0000 803f 0000 803f 0000 803f 0000 803f
00000270: 0000 803f 0000 803f 0000 803f 0000 803f
00000280: 0000 803f 0000 803f 0000 803f 0000 803f
00000290: 0000 803f 0000 803f 0000 803f 0000 803f
000002a0: 0000 803f 0000 803f 0000 803f 0000 803f
000002b0: 0000 803f 0000 803f 0000 803f 0000 803f
000002c0: 0000 803f 0000 803f 0000 803f 0000 803f
000002d0: 0000 803f 0000 803f 0000 803f 0000 803f
000002e0: 0000 803f 0000 803f 0000 803f 0000 803f
000002f0: 0000 803f 0000 803f 0000 803f 0000 803f
00000300: 0000 803f 0000 803f 0000 803f 0000 803f
00000310: 0000 803f 0000 803f 0000 803f 0000 803f
00000320: 0000 803f 0000 803f 0000 803f 0000 803f
00000330: 0000 803f 0000 803f 0000 803f 0000 803f
00000340: 0000 803f 0000 803f 0000 803f 0000 803f
00000350: 0000 803f 0000 803f 0000 803f 0000 803f
00000360: 0000 803f 0000 803f 0000 803f 0000 803f
00000370: 0000 803f 0000 803f 0000 803f 0000 803f
00000380: 0000 803f 0000 803f 0000 803f 0000 803f
00000390: 0000 803f 0000 803f 0000 803f 0000 803f
000003a0: 0000 803f 0000 803f 0000 803f 0000 803f
000003b0: 0000 803f 0000 803f 0000 803f 0000 803f
000003c0: 0000 803f 0000 803f 0000 803f 0000 803f
000003d0: 0000 803f 0000 803f 0000 803f 0000 803f
000003e0: 0000 803f 0000 803f 0000 803f 0000 803f
000003f0: 0000 803f 0000 803f 0000 803f 0000 803f
1.0 1.0 1.0 1.0 1.0 1.0 1.0 1.0
1.0 1.0 1.0 1.0 1.0 1.0 1.0 1.0
1.0 1.0 1.0 1.0 1.0 1.0 1.0 1.0
1.0 1.0 1.0 1.0 1.0 1.0 1.0 1.0
1.0 1.0 1.0 1.0 1.0 1.0 1.0 1.0
1.0 1.0 1.0 1.0 1.0 1.0 1.0 1.0
1.0 1.0 1.0 1.0 1.0 1.0 1.0 1.0
1.0 1.0 1.0 1.0 1.0 1.0 1.0 1.0
1.0 1.0 1.0 1.0 1.0 1.0 1.0 1.0
1.0 1.0 1.0 1.0 1.0 1.0 1.0 1.0
1.0 1.0 1.0 1.0 1.0 1.0 1.0 1.0
1.0 1.0 1.0 1.0 1.0 1.0 1.0 1.0
1.0 1.0 1.0 1.0 1.0 1.0 1.0 1.0
1.0 1.0 1.0 1.0 1.0 1.0 1.0 1.0
1.0 1.0 1.0 1.0 1.0 1.0 1.0 1.0
1.0 1.0 1.0 1.0 1.0 1.0 1.0 1.0
1.0 1.0 1.0 1.0 1.0 1.0 1.0 1.0
1.0 1.0 1.0 1.0 1.0 1.0 1.0 1.0
1.0 1.0 1.0 1.0 1.0 1.0 1.0 1.0
1.0 1.0 1.0 1.0 1.0 1.0 1.0 1.0
1.0 1.0 1.0 1.0 1.0 1.0 1.0 1.0
1.0 1.0 1.0 1.0 1.0 1.0 1.0 1.0
1.0 1.0 1.0 1.0 1.0 1.0 1.0 1.0
1.0 1.0 1.0 1.0 1.0 1.0 1.0 1.0
1.0 1.0 1.0 1.0 1.0 1.0 1.0 1.0
1.0 1.0 1.0 1.0 1.0 1.0 1.0 1.0
1.0 1.0 1.0 1.0 1.0 1.0 1.0 1.0
1.0 1.0 1.0 1.0 1.0 1.0 1.0 1.0
1.0 1.0 1.0 1.0 1.0 1.0 1.0 1.0
1.0 1.0 1.0 1.0 1.0 1.0 1.0 1.0
1.0 1.0 1.0 1.0 1.0 1.0 1.0 1.0
1.0 1.0 1.0 1.0 1.0 1.0 1.0 1.0

pre_net2.1.bias f4 [256]
00000000: 0000 0000 0000 0000 0000 0000 0000 0000
00000010: 0000 0000 0000 0000 0000 0000 0000 0000
00000020: 0000 0000 0000 0000 0000 0000 0000 0000
00000030: 0000 0000 0000 0000 0000 0000 0000 0000
00000040: 0000 0000 0000 0000 0000 0000 0000 0000
00000050: 0000 0000 0000 0000 0000 0000 0000 0000
00000060: 0000 0000 0000 0000 0000 0000 0000 0000
00000070: 0000 0000 0000 0000 0000 0000 0000 0000
00000080: 0000 0000 0000 0000 0000 0000 0000 0000
00000090: 0000 0000 0000 0000 0000 0000 0000 0000
000000a0: 0000 0000 0000 0000 0000 0000 0000 0000
000000b0: 0000 0000 0000 0000 0000 0000 0000 0000
000000c0: 0000 0000 0000 0000 0000 0000 0000 0000
000000d0: 0000 0000 0000 0000 0000 0000 0000 0000
000000e0: 0000 0000 0000 0000 0000 0000 0000 0000
000000f0: 0000 0000 0000 0000 0000 0000 0000 0000
00000100: 0000 0000 0000 0000 0000 0000 0000 0000
00000110: 0000 0000 0000 0000 0000 0000 0000 0000
00000120: 0000 0000 0000 0000 0000 0000 0000 0000
00000130: 0000 0000 0000 0000 0000 0000 0000 0000
00000140: 0000 0000 0000 0000 0000 0000 0000 0000
00000150: 0000 0000 0000 0000 0000 0000 0000 0000
00000160: 0000 0000 0000 0000 0000 0000 0000 0000
00000170: 0000 0000 0000 0000 0000 0000 0000 0000
00000180: 0000 0000 0000 0000 0000 0000 0000 0000
00000190: 0000 0000 0000 0000 0000 0000 0000 0000
000001a0: 0000 0000 0000 0000 0000 0000 0000 0000
000001b0: 0000 0000 0000 0000 0000 0000 0000 0000
000001c0: 0000 0000 0000 0000 0000 0000 0000 0000
000001d0: 0000 0000 0000 0000 0000 0000 0000 0000
000001e0: 0000 0000 0000 0000 0000 0000 0000 0000
000001f0: 0000 0000 0000 0000 0000 0000 0000 0000
00000200: 0000 0000 0000 0000 0000 0000 0000 0000
00000210: 0000 0000 0000 0000 0000 0000 0000 0000
00000220: 0000 0000 0000 0000 0000 0000 0000 0000
00000230: 0000 0000 0000 0000 0000 0000 0000 0000
00000240: 0000 0000 0000 0000 0000 0000 0000 0000
00000250: 0000 0000 0000 0000 0000 0000 0000 0000
00000260: 0000 0000 0000 0000 0000 0000 0000 0000
00000270: 0000 0000 0000 0000 0000 0000 0000 0000
00000280: 0000 0000 0000 0000 0000 0000 0000 0000
00000290: 0000 0000 0000 0000 0000 0000 0000 0000
000002a0: 0000 0000 0000 0000 0000 0000 0000 0000
000002b0: 0000 0000 0000 0000 0000 0000 0000 0000
000002c0: 0000 0000 0000 0000 0000 0000 0000 0000
000002d0: 0000 0000 0000 0000 0000 0000 0000 0000
000002e0: 0000 0000 0000 0000 0000 0000 0000 0000
000002f0: 0000 0000 0000 0000 0000 0000 0000 0000
00000300: 0000 0000 0000 0000 0000 0000 0000 0000
00000310: 0000 0000 0000 0000 0000 0000 0000 0000
00000320: 0000 0000 0000 0000 0000 0000 0000 0000
00000330: 0000 0000 0000 0000 0000 0000 0000 0000
00000340: 0000 0000 0000 0000 0000 0000 0000 0000
00000350: 0000 0000 0000 0000 0000 0000 0000 0000
00000360: 0000 0000 0000 0000 0000 0000 0000 0000
00000370: 0000 0000 0000 0000 0000 0000 0000 0000
00000380: 0000 0000 0000 0000 0000 0000 0000 0000
00000390: 0000 0000 0000 0000 0000 0000 0000 0000
000003a0: 0000 0000 0000 0000 0000 0000 0000 0000
000003b0: 0000 0000 0000 0000 0000 0000 0000 0000
000003c0: 0000 0000 0000 0000 0000 0000 0000 0000
000003d0: 0000 0000 0000 0000 0000 0000 0000 0000
000003e0: 0000 0000 0000 0000 0000 0000 0000 0000
000003f0: 0000 0000 0000 0000 0000 0000 0000 0000
0.0 0.0 0.0 0.0 0.0 0.0 0.0 0.0
0.0 0.0 0.0 0.0 0.0 0.0 0.0 0.0
0.0 0.0 0.0 0.0 0.0 0.0 0.0 0.0
0.0 0.0 0.0 0.0 0.0 0.0 0.0 0.0
0.0 0.0 0.0 0.0 0.0 0.0 0.0 0.0
0.0 0.0 0.0 0.0 0.0 0.0 0.0 0.0
0.0 0.0 0.0 0.0 0.0 0.0 0.0 0.0
0.0 0.0 0.0 0.0 0.0 0.0 0.0 0.0
0.0 0.0 0.0 0.0 0.0 0.0 0.0 0.0
0.0 0.0 0.0 0.0 0.0 0.0 0.0 0.0
0.0 0.0 0.0 0.0 0.0 0.0 0.0 0.0
0.0 0.0 0.0 0.0 0.0 0.0 0.0 0.0
0.0 0.0 0.0 0.0 0.0 0.0 0.0 0.0
0.0 0.0 0.0 0.0 0.0 0.0 0.0 0.0
0.0 0.0 0.0 0.0 0.0 0.0 0.0 0.0
0.0 0.0 0.0 0.0 0.0 0.0 0.0 0.0
0.0 0.0 0.0 0.0 0.0 0.0 0.0 0.0
0.0 0.0 0.0 0.0 0.0 0.0 0.0 0.0
0.0 0.0 0.0 0.0 0.0 0.0 0.0 0.0
0.0 0.0 0.0 0.0 0.0 0.0 0.0 0.0
0.0 0.0 0.0 0.0 0.0 0.0 0.0 0.0
0.0 0.0 0.0 0.0 0.0 0.0 0.0 0.0
0.0 0.0 0.0 0.0 0.0 0.0 0.0 0.0
0.0 0.0 0.0 0.0 0.0 0.0 0.0 0.0
0.0 0.0 0.0 0.0 0.0 0.0 0.0 0.0
0.0 0.0 0.0 0.0 0.0 0.0 0.0 0.0
0.0 0.0 0.0 0.0 0.0 0.0 0.0 0.0
0.0 0.0 0.0 0.0 0.0 0.0 0.0 0.0
0.0 0.0 0.0 0.0 0.0 0.0 0.0 0.0
0.0 0.0 0.0 0.0 0.0 0.0 0.0 0.0
0.0 0.0 0.0 0.0 0.0 0.0 0.0 0.0
0.0 0.0 0.0 0.0 0.0 0.0 0.0 0.0
